gnn_models/dataset/ciao/models/hgt.pt (torch, 487541 bytes, 39 tensors)

skip f4 [3]
00000000: c2dd 893f 4bec 883f 7113 8a3f
1.07708 1.0697111 1.0787183

residual_w f4 [16, 64]
00000000: 2503 45be 60d9 9fbd 1fc2 44be e9af 043d
00000010: fd2c 0f3e 30e0 36be 0dd0 85be 1d96 e73d
00000020: cce4 41be 350f 10be 00cb 2d3e 3332 903e
00000030: e8a8 a83d e1f8 db3d 0a36 29be 7c87 2a3c
00000040: b3e5 93bd bf2f 10be 8e18 933e a027 9fbd
00000050: a8b8 5ebd 5c91 79be 9aa4 333e 2a53 893d
00000060: ad55 453e ed47 cb3c dc1a 98bd 27b5 e93d
00000070: 7d12 923d ebb1 77bd 782f 613e 2b9d 8d3e
00000080: 9e6a 27be bd72 f0bd bc50 833a 9747 d7bd
00000090: a5ed 2d3e bd36 15be ea32 3cbe 1817 583d
000000a0: de3a 3c3d 6bfc a1be abc6 3c3e 8cb7 55bd
000000b0: 7920 133e a197 8d3c 8d4a 70be 87ea 563d
000000c0: a2a5 a4be b02c 123e ab43 603d be50 76bd
000000d0: db60 80be 37a9 063e b27a 633e 4816 97bd
000000e0: 38d5 123e 464f 403e b393 32be 13b4 933d
000000f0: a5dc d63c ae49 813d 3314 dfbd a012 a43d
00000100: 892b 43bd c6f5 62be 17d3 a0be 03f9 b6bd
00000110: 4ef3 073e a0d8 913e 6ec2 4a3e d8f0 4f3e
00000120: 4e8f 063e 64bf a73d ea19 293d 536b 93be
00000130: 9947 6fbe 0ee6 aabd 0822 903e 2eda f93d
00000140: 0a27 68bd 4b45 393e 7884 1ebe 820d 763e
00000150: f0b3 1dbe de4d 6dbd 649d 983c 6663 13be
00000160: 6074 f7bd 2322 11bd 8978 1a3e f809 07bd
00000170: b63a 663d 5a50 9f3d 8e22 3c3e ccd0 4ebe
00000180: 41df 0b3e f601 143e aad9 43be 2a9a ec3d
00000190: ac83 1cbe f793 2abd 5696 66bd ac2e 97bd
000001a0: 46b7 9bbe 5c65 8e3e 4f7b 3c3e 0d18 6ebd
000001b0: 7969 43bd 3dcc 433c ddae 7fbe e90a 47be
000001c0: 2a7e ee3d 5ae9 6a3e 4904 20be 61b2 b93d
000001d0: 001d d0bc 3892 ea3d a9cd 893c a18a 9fbc
000001e0: ac69 f73d 2294 523e 7a0e 43be 211b 43be
000001f0: 84cc 5dbe 90e9 303e 93d5 63bd 3189 25bd
00000200: c959 5c3e ec87 6fbd 635e 72be 2399 1bbe
00000210: 546d 33bd dd5e 263e 1df4 c23d 21d1 723d
00000220: 44fe 38be 5fa5 d0bc 0d3a 793e 02da 9d3e
00000230: 8739 453e 4c45 b23d c87a 133e 3b6b e9bd
00000240: 7625 3dbe 1e29 3d3e 2809 a03e 13ff 273e
00000250: 947b 8dbd 6da1 a6bd 8959 a9bd 9c92 d23d
00000260: 2ac4 85bd 0b8d 68be 7d15 713e 5bf9 5cbe
00000270: 9028 733e f47f a3be dd50 643e e092 893e
00000280: 8275 86be 5b07 163e 1c92 2abd 4cbb a8be
00000290: 0721 0f3e 0643 41be 37bf fcbd 232a 753e
000002a0: d6ee 48be 8ee9 ffbd 6670 97bd 7b60 493d
000002b0: 7d07 d03d b03f 663d 4f39 1d3e 4d99 253d
000002c0: 8490 1ebe 10d5 9a3d 362c 3e3e 427c 3d3e
000002d0: 9631 e7bd abc0 f3bd 3253 313d 43fb 59bd
000002e0: 3ba5 2cbd d923 23be 89fb da3d e33b 233c
000002f0: 2f79 7c3b b455 e5bd 7996 713e 4fc6 28be
00000300: 08a6 9c3c 2ac3 ad3d 9ea3 1ebe 62a1 1e3c
00000310: d5aa 333e 6754 f23d 9e18 5a3d c9dd e4bd
00000320: 6d63 9a3d 8e1b 2ebe 4862 6d3d 63eb 1e3e
00000330: 8e8c 4bbe d854 043e 4d6b b3bd 65ec 27be
00000340: 8610 0fbe 944e b63d 074f 283e f93e 4cbe
00000350: 0db2 c4bd 9671 e23d 70fb 1f3e 31e5 683d
00000360: e180 4a3e 90dc 77be c88e 05be cbca 37be
00000370: e1b9 c33c be85 96bd 7cbb 8b3d c526 083e
00000380: 771d 2ebe 3ff9 32be 3d78 b33d ac55 2a3e
00000390: 7db3 22bc 2a56 f1bd 709b 3a3e 0199 243e
000003a0: c1ee e1bb 210e 80be f8a8 06bc 8c59 29be
000003b0: 368f 72be 9897 7a3e 2655 4d3e 5d9e 843e
000003c0: a7a2 2d3e c827 fa3d b95d 7c3e d516 973e
000003d0: 422e 503e ecf8 6d3e 0140 8f3d 991d 413e
000003e0: 38f6 30be eaad 5ebe 16c9 983c 91ae eebd
000003f0: de21 41be d518 293e bd88 edbd edc2 8fbc
-0.19239481 -0.07805133 -0.19214676 0.032394323 0.13982005 -0.17858958 -0.26135293 0.11307929
-0.18934935 -0.14068301 0.1697197 0.281633 0.08235341 0.10740829 -0.1652452 0.010408279
-0.07221546 -0.14080714 0.2872967 -0.0777123 -0.05437532 -0.24371856 0.1754326 0.067053154
0.19270964 0.02481457 -0.07426998 0.11411505 0.071324326 -0.06047241 0.21990764 0.27658972
-0.16349265 -0.117406346 0.0010018568 -0.105117016 0.16985185 -0.14571662 -0.18378797 0.0527564
0.045954578 -0.31637892 0.18435161 -0.052176997 0.14367856 0.017284216 -0.23465939 0.052469756
-0.32157618 0.1427486 0.054752033 -0.060135596 -0.25073895 0.13150488 0.22214773 -0.07377297
0.14339149 0.1878024 -0.17439155 0.07212081 0.026228258 0.063128814 -0.108925246 0.08011365
-0.04764894 -0.22164068 -0.3141105 -0.08934214 0.13276407 0.28485584 0.19800732 0.20306718
0.13140604 0.08190802 0.04128448 -0.2879282 -0.23367156 -0.08344661 0.28150964 0.121998176
-0.056677856 0.1809284 -0.1548022 0.2402859 -0.15400672 -0.057935588 0.018629737 -0.14393386
-0.12082744 -0.035432946 0.15085043 -0.03296849 0.056208335 0.07778998 0.18372557 -0.20196837
0.13659383 0.14453873 -0.19126001 0.11552842 -0.15284604 -0.041645017 -0.056295715 -0.07381949
-0.30413264 0.27811706 0.18406413 -0.058128405 -0.04770801 0.01195055 -0.24969049 -0.19437756
0.11645158 0.22940579 -0.15626635 0.09067226 -0.025404453 0.1145367 0.0168217 -0.019475283
0.12080702 0.2056432 -0.19048491 -0.19053318 -0.21660048 0.17276597 -0.055623602 -0.04041404
0.21518625 -0.058479235 -0.23668818 -0.15195136 -0.043805435 0.16247125 0.09519217 0.059281472
-0.18065745 -0.02546948 0.24338551 0.3083039 0.19260226 0.087046236 0.14402306 -0.11397406
-0.18471321 0.18472716 0.31256986 0.16405897 -0.06908336 -0.08136258 -0.082690306 0.1028187
-0.06531556 -0.22710054 0.23543353 -0.21579497 0.23745942 -0.31933558 0.22296472 0.2686987
-0.26261526 0.14651243 -0.041643247 -0.32955396 0.13977443 -0.18873224 -0.12341159 0.23941855
-0.19622359 -0.12495719 -0.07394485 0.049164277 0.10157678 0.05621308 0.15353893 0.040429402
-0.15484816 0.0756017 0.18571553 0.18504432 -0.11288755 -0.11901983 0.04329223 -0.053218137
-0.042149764 -0.15931644 0.10692508 0.009963009 0.003852438 -0.11197987 0.23592557 -0.16481899
0.019122139 0.0848449 -0.15492103 0.009682031 0.17545636 0.11832505 0.053246133 -0.11175115
0.07538495 -0.17002699 0.057955056 0.1551948 -0.19877836 0.1292299 -0.087607004 -0.16398771
-0.13971147 0.08901706 0.16436397 -0.19945897 -0.09604273 0.11056821 0.1562326 0.0568592
0.19775726 -0.24205232 -0.13042748 -0.17948453 0.023892345 -0.07349728 0.06822869 0.1329604
-0.17003427 -0.17477892 0.08763168 0.16634244 -0.009930489 -0.117840126 0.18223357 0.16073991
-0.0068949168 -0.2501078 -0.008218996 -0.16538066 -0.23687443 0.24471891 0.20052013 0.25902072
0.16956578 0.12214619 0.24645127 0.29509607 0.20330146 0.23239487 0.0699463 0.18858947
-0.17281425 -0.2174603 0.018650573 -0.1165439 -0.18860576 0.16513379 -0.115983464 -0.017549003

W f4 [3, 16, 64]
00000000: d6c1 783e 87c2 43be 8031 623e 8138 263e
00000010: fd12 e53d 9108 08be 211a 993c 96c1 0b3e
00000020: 573a b33d fc4c ba3d 8ced 09bd 195b 5a3e
00000030: 381a 0fbe 2aaa 803e 4ca3 773d 3dcb 71be
00000040: fe57 1d3e ae53 1abd 756e acbe eb78 02bd
00000050: e010 5abe 935d 23bd a504 27bd d3ed 273e
00000060: d4eb ffbd ceac 41bd 2a43 92bd 311d 61be
00000070: ae06 77be a130 d6bd a9cf 80be 5f14 cabe
00000080: 8c1a 553e 0ccb e2bc 4648 4a3e 10a6 243e
00000090: 6bc7 7c3e b378 0cbe 57b9 20be f6ff b73d
000000a0: a378 80bd 1079 603e ca05 603c b592 bebe
000000b0: 1e54 b1bd 99a9 863e d103 49be 48a6 3cbd
000000c0: 6f00 4d3e 2ead 9e3e dd52 183e a982 0bbe
000000d0: 61ba 82be c58e c4be 2cd2 6f3d 7378 86bd
000000e0: 35fd 07be 78da 31be 6e01 813e f753 f33a
000000f0: 4bcd dcbd 1461 f8bb 5d20 da3d 7382 643e
00000100: c887 193d 2c9f cd3d 2585 1e3e 8093 82be
00000110: fbb5 e73c 6c68 d8bd af32 653e f2ca 053e
00000120: 8056 a23d 28c0 50bd 9729 1e3e 59ea 8b3c
00000130: 655a 90bd f7c5 11be 7236 78be 4ee5 99bd
00000140: e17e 6bbe a0b1 35bd 9589 823d 79e5 4fbe
00000150: 6389 5fbe af32 2abe c42e 643e e5a7 ca3d
00000160: 19a4 2bbe 49b7 a23b 8568 79be 4d6e 72be
00000170: 7da0 6dbc dbf3 423e dd92 243e 1b71 9a3d
00000180: f5e1 7a3d ae91 5b3e 2f92 36be ffbe 163e
00000190: 641d 493d a094 edbd d91f 0e3e 2b5d a1bd
000001a0: dab4 8d3e 0287 373e dda8 6bbe b816 81bd
000001b0: 4639 b03d 0d6d e93d 83bc 29be f5e8 3d3d
000001c0: 673c 403e 4403 2ebe c4c5 0d3c 12e9 79be
000001d0: 827b 72be 9677 8dbe df5c bbbc 810f 583e
000001e0: 7807 143c 26c8 503e c0f0 0e3a 11e4 68be
000001f0: 1f6a 4f3e 9d0e 753d ef8c 86bd bd98 733e
00000200: 4283 333e 174d dfbd 2209 6bbe b5e6 f33d
00000210: 7957 86be d6e5 55be 3af0 babd 983b 43be
00000220: 96e9 8fbd a97e 933c 932a 923e 8bb1 9ebe
00000230: 8dd6 91bd 2cf5 54be 384b 9cbd a26a a0bd
00000240: 8c51 7e3d b80b dabd fbd3 3a3e f772 65be
00000250: bc4d 87be 1347 903a d69a 633e 9bb1 963e
00000260: 3ecc 033e 2840 3e3d 53d2 003e 1c93 17bd
00000270: e18c b7be 02aa da3e bfda f5bd 7b53 713d
00000280: ae8d 30be 96f7 04bc 07fb 0a3e 0503 723d
00000290: a7e0 a3be b9e1 c83e 4f9a 8ebe 01d3 c3be
000002a0: 2872 d8be c204 3cbe 68dd c93e 9b7d 853e
000002b0: 89c1 7cbc d0aa 363e bfd9 7c3e 174b 99bc
000002c0: 01ef 47bc 5658 3d3e 3ec6 4d3d 4840 b43c
000002d0: d0ff 9b3e bc04 69be b1e9 3c3e baf2 b3be
000002e0: f570 d43d 27bb c6bb 715d f0bc e8ff 753e
000002f0: b3ce dabe 8f53 1c3e bd25 c8bd 67bc e4bd
00000300: 2118 6abe b0b4 64bd 8b36 03be 4ec7 19bd
00000310: 3b93 a93e 2781 3cbd 451c 523e 9607 f23d
00000320: f771 ffbd fd57 6cbd 4dc0 9dbe 3916 e83d
00000330: b341 793b a792 713d 0eed 4b3e 5803 cdbe
00000340: 5698 6f3e 6e6f 353d 42b8 823c 32eb 343e
00000350: 07e4 08be 90dd b5be 3a96 af3e 5d65 8f3e
00000360: 09a0 7b3d 75f5 a6be 2373 cfbd 09ab 5b3d
00000370: cd1d 183d e887 8bbe a1d1 18be 4fa5 c13d
00000380: e4dd 283d 6f11 483d b238 91bd 8506 4c3e
00000390: 8254 ba3e 78cd c93e b039 6fbc 9cdc 823e
000003a0: 7cb8 bf3e 5808 6f3c 21cd 6fbe 8913 6dbd
000003b0: 1216 133d 6afb 8c3e 762c b7be a7ca 0ebe
000003c0: b6e2 603e 3a41 1d3d 704c 8bbc 53ed 0dbe
000003d0: 476a 2bbe 72c7 92be 65be 09be f7ed 68be
000003e0: cbbc 5f3c a0d9 47be 0f25 95ba be18 ccbb
000003f0: 482a 91be f52e 9abd 5093 913e e1c9 043d
0.24292693 -0.19117175 0.22089195 0.16232492 0.11185262 -0.13284518 0.018689217 0.13648066
0.08751362 0.09096715 -0.033673808 0.21323813 -0.13974845 0.25129825 0.060458466 -0.23612686
0.15365598 -0.03767746 -0.33678022 -0.031853598 -0.212955 -0.03988416 -0.040775914 0.16399316
-0.124961525 -0.04728394 -0.07141717 -0.21983792 -0.24123642 -0.10458494 -0.25158432 -0.39468667
0.20810908 -0.02768471 0.19754133 0.16078973 0.24685447 -0.13717918 -0.15695702 0.089843675
-0.0627301 0.21921182 0.013673255 -0.37221304 -0.08658622 0.26301268 -0.19630362 -0.046057016
0.20019697 0.309915 0.1487536 -0.13624062 -0.2553282 -0.38390175 0.058550045 -0.065659426
-0.13280185 -0.17368495 0.25196403 0.0018564452 -0.10781344 -0.007579932 0.10650704 0.22315387
0.037483007 0.10040125 0.15480478 -0.2550316 0.028285017 -0.10566792 0.22382616 0.13065699
0.07926655 -0.050964504 0.15445553 0.01707952 -0.070484914 -0.14235674 -0.24239519 -0.075144395
-0.22997619 -0.04435885 0.06373898 -0.2030238 -0.21829753 -0.16620897 0.22283465 0.098953046
-0.16761817 0.004965697 -0.24356277 -0.23674889 -0.014503595 0.19038336 0.16071649 0.075411044
0.061250646 0.21442291 -0.17829202 0.14721297 0.049100295 -0.116006136 0.13879336 -0.078790985
0.2767704 0.17922595 -0.23013635 -0.063031614 0.08604674 0.11397753 -0.16575818 0.046364743
0.18773042 -0.16993433 0.008653108 -0.24405316 -0.23679927 -0.276303 -0.022871433 0.21099664
0.009034984 0.2038885 0.00054527447 -0.2274325 0.20255326 0.05982839 -0.0656985 0.23788734
0.1753054 -0.109033756 -0.22952703 0.11909238 -0.2623861 -0.20888457 -0.09127851 -0.19065702
-0.07026975 0.018004732 0.28548107 -0.3099483 -0.071210004 -0.2079665 -0.07631534 -0.078328386
0.062089488 -0.106467664 0.18244927 -0.22407137 -0.26426494 0.001100751 0.22227034 0.29432377
0.12870881 0.046447903 0.12580232 -0.03700553 -0.3584967 0.4270783 -0.12004613 0.058917504
-0.17241547 -0.00811567 0.13572322 0.05908491 -0.32007334 0.39234713 -0.27852103 -0.3824692
-0.42274594 -0.1836119 0.39426732 0.26072392 -0.015427002 0.17838597 0.24692439 -0.018712563
-0.012202979 0.18490729 0.050237887 0.022003308 0.30468607 -0.22755712 0.18448521 -0.35146123
0.10373107 -0.0060647908 -0.029341431 0.24023402 -0.42735824 0.1526625 -0.09772823 -0.111687474
-0.22860767 -0.05583638 -0.12813775 -0.037543587 0.3312014 -0.046021607 0.20518596 0.11817853
-0.12472909 -0.0577011 -0.30810776 0.11332364 0.0038033545 0.05897775 0.19914648 -0.40041614
0.23397955 0.04429572 0.015957002 0.17667845 -0.13368236 -0.355206 0.342943 0.28007022
0.06143192 -0.32609144 -0.101293825 0.05362991 0.037137795 -0.27252126 -0.14923717 0.09455358
0.041227236 0.04884475 -0.07090892 0.19924362 0.363926 0.39414573 -0.014601156 0.25558937
0.37445438 0.014589392 -0.23418094 -0.05787996 0.03590972 0.27535564 -0.35776109 -0.13944493
0.21961483 0.038392283 -0.017004222 -0.13860063 -0.1673976 -0.2866779 -0.13451536 -0.22747026
0.013655852 -0.19516611 -0.0011378842 -0.0062285354 -0.2835257 -0.075284876 0.28432703 0.03241909

W f4 [3, 16, 64]
00000000: 8c4b 96bc 07dd 5a3d 5da6 e63c 1c0c 493e
00000010: e82d 063d aba5 23bd 2e3a 8dbe ee8d c6bd
00000020: 6b2d 213e 7488 4abe 79d1 23be 6d21 fd3d
00000030: a483 53be 9d03 e2bd bf22 6dbe 7f12 8dbd
00000040: 775c 94bc 923d a7be 2b63 2ebe e56c 74be
00000050: cad4 5a3e 0044 873e b45d 75be 86e3 cfbb
00000060: 0bfc 21be b740 03bc cfba 64be 1c48 3a3e
00000070: b4ea 073e 9b87 9cbe c86a efbd c282 a93e
00000080: 90c2 b63c cd7b 9dbd 6960 ce3b fe1f 6a3e
00000090: e87a 473e 3850 2dbe 08cb 073e a287 103c
000000a0: 6c9b 4a3c bebc 413e 0e68 53be 253a 83be
000000b0: 0f55 1e3e 76b7 87bd c834 a1be 08c4 793d
000000c0: 5a02 49be 69a8 48be f964 1e3e a4fd 563c
000000d0: ba53 953c fce3 17be c261 77be a4e1 c5bd
000000e0: e247 47be 00c4 99be e526 373e fe0a cf3d
000000f0: ca6c 653d 2d1e f63d d63d 9abd 6f56 88be
00000100: 3b14 523e 73b6 7abe e7f7 85be 4f32 893e
00000110: 00cd 39ba dda8 063c 0a30 4d3e 1087 35bd
00000120: 6e73 f8bc 89d0 1c3c a896 4f3e 4c06 0bbe
00000130: d3c1 0abe cdb9 3a3e e03d 40be 0b64 2d3e
00000140: 41df 703d bc98 10be bbe5 1dbd 1b71 09bc
00000150: 0adb 8d3e 8264 3b3e e792 83be 058c 7d3e
00000160: b3bd 8fbc 808c 96bd 73cf 2dbe cda4 813d
00000170: af33 a63d cb6d c13c 5d71 473e f369 0c3e
00000180: 14e7 81bd 75b3 8b3d b691 2cbe 6cac 98bd
00000190: 6272 a2bb 1215 6ebe 191a bcbd f856 e53d
000001a0: 2ad0 273e 5fc6 4d3e 0a85 13be 7fb0 7b3d
000001b0: 8b49 843d 2910 043d dd3e 00be 6ae4 853e
000001c0: 5db1 393e 4d6b 93bd ce92 1d3d fb3e e0bd
000001d0: ce86 39bd 40ef 8ebe f8eb 33bd 9eed 103e
000001e0: 6fc7 823e ba4f 37bc a0e3 e3bd 5753 80bd
000001f0: 2e7b 093e c32a 133c ae8e 453e 92b8 8e3b
00000200: 7cc6 94bc 13ea 7abd 6128 f5bd ae9a 0abe
00000210: 9659 a03e 1988 0e3e d90e 993e ce34 7e3c
00000220: 232c 7cbc 80f3 0cbe 83cd 3bb9 b1fc 883e
00000230: 3880 bdbc d628 12be 0373 a5be cc47 dfbd
00000240: 79bb fcbc 7848 97be 421c 04be a75f f93d
00000250: c64e 17be c8af 22be f469 da3d 3643 aa3e
00000260: 2fa1 45bd b74a 95be 8a83 c0be 3ef4 ab3e
00000270: 1f32 9a3e 0578 69be 7aa9 e93d 4fb4 78bd
00000280: 5be1 ffbd c74f 7d3d 1b93 383e fc1b 823e
00000290: ddd5 803e 8918 0abe 9703 283d a164 203e
000002a0: ea77 333d b280 8e3d 010f 53bd f2fc bebe
000002b0: 4dd7 d33d dc9d 163e 5878 2b3d de25 de3c
000002c0: 2ab3 3b3e 5e0f 00be bdbd b13e d8fb a83d
000002d0: de2c 8b3e 125f 443e 7eca 7ebe fa81 c5bd
000002e0: 34e6 bc3d 0314 aebe bbb8 9f3d 7890 333e
000002f0: 46b4 90be ba90 b5be ed16 683d ece2 b9be
00000300: b3ce a63d 210d 193e 7b56 81be 6964 56be
00000310: 38b2 2abe ed38 71be 77d2 ffbb 2e2e f4bd
00000320: bbca 6dbe 470e e2bc 4ffb 1b3e f2df 903d
00000330: 7ca0 b1bd 929e 05be 083b ed3d 3a4d 1d3d
00000340: 202f 01bc 7c26 0dbe 9ce9 e93c 82f6 05be
00000350: a010 823e 9dbd ad3e 5321 4bbe a543 853e
00000360: 5274 e9bb 2dae 55be 969e 81be e823 da3d
00000370: bfb1 193d fdbb 88be 2a91 8c3c ccd7 613e
00000380: 371f 29be 0d04 de3c 764e fabc 883d 15be
00000390: c7ed b8bd a220 41be 83a3 87be 3e09 863e
000003a0: ba53 90bb 45cd 28bd 21d2 15bd e36f 3ebe
000003b0: 9c62 bfbc 70cb 24be e457 493c b923 673d
000003c0: 57c5 43be 8bb4 0c3e 3d47 333e aeed 6ebc
000003d0: 80a6 6bbd 0338 1a3c b769 a0be 9a0a 52be
000003e0: 6c5a 6dbe 1a98 0fbe cdff f23c 2309 87be
000003f0: a3fb 66be 3912 2cbe d8ff 79be f918 64be
-0.01834657 0.053433444 0.0281555 0.19633526 0.032758623 -0.039952915 -0.2758345 -0.0969504
0.15739982 -0.19778615 -0.15997876 0.12359891 -0.20655686 -0.110358454 -0.23157786 -0.068882935
-0.018110497 -0.32664162 -0.17030017 -0.23869665 0.21370235 0.26419067 -0.23961526 -0.0063442616
-0.15818803 -0.008011035 -0.22336887 0.1819157 0.13273126 -0.3057221 -0.11690289 0.33107573
0.022309572 -0.07689629 0.006298114 0.22863767 0.19480479 -0.16925132 0.13261044 0.0088214
0.012366157 0.18919656 -0.20645162 -0.25630298 0.15462135 -0.06626789 -0.3148558 0.060977966
-0.19629803 -0.19595493 0.15468206 0.013121996 0.0182284 -0.14833063 -0.24158385 -0.09662178
-0.19461015 -0.3003235 0.17885931 0.101095185 0.056011952 0.12017474 -0.075313255 -0.26628444
0.2051553 -0.24483661 -0.26165697 0.26796195 -0.00070877373 0.008218971 0.20037857 -0.04431826
-0.030328479 0.009571203 0.20272315 -0.13576621 -0.135505 0.1823494 -0.18773603 0.16932695
0.05880666 -0.14120764 -0.038549166 -0.008388783 0.27706176 0.1830006 -0.25698015 0.24760444
-0.01754651 -0.07351017 -0.16973667 0.063302614 0.081153266 0.023611924 0.19476838 0.13712291
-0.06342903 0.06821338 -0.1685246 -0.07454762 -0.004957483 -0.23250225 -0.09184665 0.111982286
0.16388002 0.20095204 -0.14406219 0.061447617 0.0645934 0.032241974 -0.1252398 0.2615083
0.18134065 -0.071982004 0.038470082 -0.109495126 -0.045294575 -0.27916908 -0.04392621 0.14153144
0.2554278 -0.011188442 -0.111274004 -0.06265896 0.13425896 0.008982363 0.19292709 0.0043554986
-0.018161051 -0.061258387 -0.11970592 -0.13535568 0.3131835 0.13919105 0.2989414 0.015515519
-0.015391382 -0.13764763 -0.00017910269 0.26755288 -0.023132429 -0.1427339 -0.3231431 -0.10902366
-0.030851113 -0.29547477 -0.12901405 0.12176447 -0.14776143 -0.15887368 0.1066474 0.33254403
-0.04824942 -0.29158565 -0.37600356 0.3358478 0.30116364 -0.2279969 0.11409278 -0.06071883
-0.12494155 0.06184366 0.18024866 0.25411975 0.25163165 -0.13485922 0.04101905 0.15663387
0.04381553 0.069581404 -0.05152798 -0.37302357 0.103438 0.14708656 0.041862816 0.027117666
0.18330064 -0.12505862 0.3471507 0.082511604 0.27182668 0.19176891 -0.24881932 -0.09643932
0.09223595 -0.33999643 0.077989064 0.17535579 -0.28262538 -0.3546198 0.05666249 -0.3630594
0.081448935 0.14946415 -0.25261292 -0.20936741 -0.16669548 -0.23556872 -0.007807072 -0.119228706
-0.23221867 -0.027594699 0.15232585 0.07073964 -0.08673188 -0.13048771 0.11583525 0.038403727
-0.007884771 -0.13784212 0.028553776 -0.13082317 0.2540331 0.33933726 -0.19836931 0.2602817
-0.007124462 -0.20867224 -0.25316304 0.1065138 0.037523028 -0.26705924 0.017159063 0.22054976
-0.16515814 0.027101541 -0.030554991 -0.14574254 -0.090297274 -0.18860105 -0.26491937 0.26178926
-0.0044045122 -0.041211385 -0.036577348 -0.18597369 -0.02336245 -0.1609323 0.012289021 0.056430552
-0.19118248 0.13740747 0.17507644 -0.014583034 -0.057531834 0.009412768 -0.31330654 -0.20511857
-0.23179024 -0.14022866 0.029662991 -0.26374158 -0.2255693 -0.16803826 -0.24414003 -0.22275151

W f4 [3, 16, 64]
00000000: 8464 1cbe bc16 373e a88c 03be 32fe 943e
00000010: a3d3 df3d 1aa4 a23c eafc a9bd 337a 003e
00000020: 3459 3d3e 770b f6bc c4b5 94bd b896 97bd
00000030: 99d6 92be 9f17 0cbe 003c acbe 6aca d23c
00000040: 61a3 30be 2f15 bd3d 9e83 1d3e 40ea 02bd
00000050: 4f40 b43d dd02 1abe da7a 5b3e 88b1 44be
00000060: 3281 9d3e 2e13 813e 2db0 82be d6de 483e
00000070: 643f 53be 1d30 393e 3503 d43d 02cb 0dbe
00000080: 45bc 74be c83e 3f3e 10de ce3d bd93 733e
00000090: 6492 81be c441 e03d a217 a43d 3476 a83e
000000a0: f5bf 983e 974b 13be a07b 803b 4ec7 a73d
000000b0: 688c 9abd 2f1c 553e 7cd7 173e f31c 58be
000000c0: 174c d73d cbe0 14be 06d0 47be 66bf 31be
000000d0: 80dc 353b 54aa 0c3e 16c1 693d 5bbf 64be
000000e0: e2c1 123e d910 9bbd 1fb3 68be 0471 7abe
000000f0: 0925 7dbe 0d72 a4bd 45b9 51be b799 843e
00000100: ebeb f83d 75ec 773d b0c4 743e b79b b33c
00000110: e4f0 413e 1f5f 243e 85a7 a63d f943 383e
00000120: 36d4 2f3e d600 7c3c 92c0 a73d 886c 6a3e
00000130: 6b15 8dbc 1406 be3d 6dd2 fa3d bca2 4cbe
00000140: aeb5 e93d 34ec 033e 5f62 d4bd 6442 cf3d
00000150: 81d9 753d cf4d 0b3c bce2 23be 8948 8e3d
00000160: f20d f3bd cff6 603e 38d8 13be 3f9c 893e
00000170: 26bc 2ebe c7fa eb3d 540d 963e 422f 84bc
00000180: 43ec 1d3e 1d5b 52be f784 f53d 1e4e 90bd
00000190: 3cd4 39be cba8 a0bd fbf4 8c3c fc5e 3cbd
000001a0: b622 8d3d aa09 013e f9eb 7e3e 5158 b33d
000001b0: 65fe 023d 12d3 68be 92a3 923d 5535 e53d
000001c0: 964b e3bd 7a8e ee3d e3c4 e23d 9e48 71bd
000001d0: fc4e 413e 1891 a33d 2a6b 2fbe 436c 1abe
000001e0: cfd5 593d 54bc 3d3e 5667 efbd 394a 663d
000001f0: 9a76 eabd 5c28 d7bc 270e 1e3e 58fb 0cbe
00000200: cbda 19bd 13fd b5bd 83e9 a2be 4f18 0e3e
00000210: cfbc 70be 88fd 4ebe 42c2 623e ec7a 623d
00000220: dc63 c2bc 09b8 9cbe 1398 afbd 7ed3 babd
00000230: b749 4bbe 7880 133e e3e6 fbbb d61f 353d
00000240: 8904 403e c1e6 243e c48c 8b3d bf6c 163e
00000250: 5037 083d 32fd ca3d e4c3 0c3e 3922 85be
00000260: 64e9 d93c 2c9c 2dbe ea50 54bc ba16 5cbd
00000270: cc8a 3dbd d46c 8b3d b6d5 863e 3fff e13d
00000280: 341c 46be f379 b4be c652 533e f9ea c53d
00000290: 351e 3e3e 5e23 c5be 72be 4a3d 5f5b 5e3e
000002a0: 37af b93e c20b 83be 2557 653d cad8 293e
000002b0: 2e9f 52bd 4d1f 773c 053c 533e 2a7b c03c
000002c0: 62bb f53c d829 993c 09a2 813e d461 9a3e
000002d0: 3f6d bc3d 0ed0 8a3c 5fcf 923d 92bf 33be
000002e0: 0450 bb3e 25dd 0b3e 9d34 6c3e db1e 583e
000002f0: a020 12be 6ae8 c23e 00cb 483d 6e26 24be
00000300: 2bf3 95be a2fc 0f3e dad6 093e e29a 883e
00000310: 01bf 7bbe 5d72 69be 0bef 99be 83ca 643e
00000320: 914a aebd 10da 93be 4a14 00be 1ebe f5bd
00000330: 4665 243b d343 773e 3edf dd3b e501 a03d
00000340: 4f73 853d 7796 3bbe 0515 8a3e 2784 a8be
00000350: d652 8abd f6ff 18be d9ea cbbd 896f cfbc
00000360: 81cc 7f3d 0e1d 853e 207b b4bd e7bf 183e
00000370: ccf0 c5bd 621e 03be 52e9 cc3b 0550 76bd
00000380: 9f0a 1a3d f18f 543e 6616 413e d176 1d3d
00000390: 0ef9 673d 83bb 20be e5c9 20be 0459 823e
000003a0: 6bf4 433e 020a edbc a879 a83d 8cf6 56be
000003b0: 8c8b 61bd 640e 9ebd 66a8 5dbe 6875 f83d
000003c0: 59ed 573e dddd 5cbe d5d3 353c 1352 783d
000003d0: b6f9 d63d 0e4f a63d c8a1 603e e1ba 58be
000003e0: f496 b93d b7cd 643e 9249 54be 6aaf 0f3e
000003f0: 8d86 1ebe 38e1 5bbd 0ae1 2cbe e02b 963d
-0.15272719 0.17879766 -0.12846625 0.29100186 0.109290384 0.01985364 -0.08300193 0.12546615
0.1849106 -0.030034764 -0.072612315 -0.07401794 -0.2867935 -0.13680886 -0.33639526 0.025731284
-0.17249824 0.09232556 0.15382239 -0.03196168 0.088013284 -0.15040155 0.21433583 -0.19208348
0.3076263 0.25209945 -0.25525036 0.19616255 -0.2062965 0.1808476 0.10352174 -0.13846973
-0.23899944 0.18676293 0.10100949 0.23786826 -0.25307 0.10950044 0.0801232 0.32902682
0.29833952 -0.14384304 0.0039209872 0.08192311 -0.075463116 0.20811532 0.14828295 -0.21104793
0.1051256 -0.14538877 -0.19512948 -0.17358169 0.0027749836 0.1373685 0.057068907 -0.22338621
0.14331773 -0.07571573 -0.2272458 -0.24457175 -0.24721159 -0.08029566 -0.20480831 0.25898525
0.12154373 0.060528237 0.23903155 0.021924837 0.18939549 0.16051911 0.081374206 0.1799468
0.17170796 0.015381059 0.08191027 0.22892964 -0.017222127 0.09278503 0.12247167 -0.19983953
0.11411606 0.12883073 -0.10370325 0.10120085 0.06002188 0.008502438 -0.16004461 0.06947429
-0.11867894 0.2196915 -0.1443795 0.2687702 -0.1706396 0.11522441 0.29307044 -0.016135816
0.15422158 -0.2054257 0.11988252 -0.0704615 -0.18147367 -0.07844695 0.01720666 -0.04598902
0.06891386 0.12601343 0.24894704 0.087570794 0.03198089 -0.22736767 0.07160105 0.11191813
-0.11098401 0.11648269 0.110727094 -0.058907144 0.18877786 0.07986659 -0.17130724 -0.15080361
0.05318242 0.18528873 -0.11689632 0.056223128 -0.11448403 -0.026264362 0.15435086 -0.13767755
-0.037562173 -0.08886161 -0.3181878 0.1387646 -0.23509525 -0.20213902 0.22144416 0.05529301
-0.023729257 -0.30609158 -0.08573928 -0.0912237 -0.19852339 0.14404476 -0.007687436 0.044219814
0.1875173 0.1610365 0.06813958 0.14689921 0.033255875 0.099115744 0.13746601 -0.26002672
0.026600547 -0.16954106 -0.012958745 -0.05373261 -0.046274945 0.06807867 0.26334924 0.110350125
-0.19346696 -0.3524929 0.20637044 0.09663958 0.1856621 -0.38503546 0.04949803 0.21714543
0.3626649 -0.25594908 0.05599131 0.16586605 -0.051421337 0.015083146 0.20628364 0.02349623
0.029996578 0.01869671 0.25318936 0.30152762 0.092005245 0.016944911 0.07168459 -0.17553547
0.36584485 0.13658579 0.23066945 0.2110552 -0.14270258 0.38067943 0.04902172 -0.16030285
-0.29287085 0.14061216 0.13460866 0.26680666 -0.24584581 -0.22797532 -0.30065188 0.22342877
-0.08510316 -0.28877306 -0.1250774 -0.119991526 0.0025084778 0.24146967 0.0067709973 0.07812861
0.06516134 -0.18319117 0.26969162 -0.32913324 -0.06754081 -0.14941391 -0.09956903 -0.025321739
0.06245089 0.2599873 -0.08812547 0.14916955 -0.09665069 -0.12804559 0.0062534 -0.060134906
0.037607785 0.20758034 0.188562 0.03844339 0.056634 -0.1569653 -0.15702017 0.2545854
0.19136207 -0.028935436 0.08226329 -0.20992488 -0.055064723 -0.077175885 -0.2164627 0.121317685
0.21086635 -0.21569009 0.011097868 0.060625147 0.10496847 0.08120547 0.21936715 -0.21165039
0.09061995 0.22344099 -0.2073119 0.14031759 -0.15481015 -0.053681582 -0.1688272 0.07332587

W f4 [3, 64, 64]
00000000: 5780 6dbe 6fce e23d ca12 023e 5b8f 023e
00000010: 8a42 efbc aa2a 0bbd ce99 f93c 2b08 23be
00000020: 4a9f e43b e3e1 97be 60da cdbd d5c6 253e
00000030: fdd8 1c3e 39ff 4c3e ef90 ee3c 0eed aabd
00000040: 90e8 853d 771e ddbd ffd9 06bd 9169 17be
00000050: 8d4a 3cbe 0399 c8bc 3fc8 05be b460 ecbd
00000060: 95ee 6b3d 2aab 133e 8565 babd 3f2f 013d
00000070: 83a1 f6bd 6440 b33d e8d5 393e ce99 043e
00000080: 0493 ccbd 4e5c 4dbd 4fed 393d 5543 72bb
00000090: d7cc 2abe 6f0d 8c3d 4d38 b2bd d57a a33b
000000a0: 0bac 04bd af69 3ebd 9ae1 743e 9b67 aa3c
000000b0: 8412 153d e9a1 6abd aeca 20bd 8714 7dbd
000000c0: 0823 bc3d f1b3 513e d158 d3bc 31cf 523e
000000d0: bd81 31be c065 323c 3ad4 2dbc b2e3 a2bc
000000e0: 5d1c dbbb e302 043e 773e 4e3d 56f3 34bd
000000f0: dcb2 a0bd 96ac e13c 643c da3d 5583 573e
00000100: c5dc 0ebc f46d 363e b1b4 f4bd 1a67 533e
00000110: bdb2 02bb 5223 8ebd 76f5 febd 22c3 bcbd
00000120: 4706 e13d 834e 473d 717b 12be 345c 623d
00000130: 40e1 36be 26f8 243e 8caf 463e c2d6 b5bd
00000140: 3552 00be 9e75 8ebb a95b f4bc eb1f b03d
00000150: ce9c 9c3d 63d3 b23c 4b1a 093e c37e f73d
00000160: 4594 bb3c 92ae d23c a91c 97bd 0089 47be
00000170: 1f2f d93c 1af9 6b3d b303 13bb f141 cebd
00000180: 46f8 7b3d 4512 c7bd f3e8 17bd ce2e 05be
00000190: cea6 12be eb8f 14be 4b1c aabc c77d 9f3d
000001a0: 3877 91bc c0ac 0a3e 5a04 fabd 4ddf aa3d
000001b0: 4d81 413d 4952 05bc 5993 1abe 0427 933d
000001c0: 889e 503e 462b 0c3e 99f7 a23c 64e3 2ebe
000001d0: 5fc2 6d3d d8ee 3e3d aba9 ff3d 519b e5bd
000001e0: c6a7 95bc d2cc a43d f546 2b3d 91b4 d4bd
000001f0: cebd e9bd 1135 e93b 4680 70bd 930f 433e
00000200: 1875 d33c 9cd9 223e 15cc 98bd 24fa aabd
00000210: de34 223e dc80 df3c cf15 c1bc 6e9a 213b
00000220: 914d 1b3e 5dee f8bd e900 9abd 53d9 273e
00000230: 2f4f 3ebe 9abd b53b 4857 373d 5b08 bebd
00000240: f498 00be e53b 0a3c 84bc 35bc 9ed6 9b3b
00000250: d365 93bc 7c80 393e b956 dcbd b0c8 55be
00000260: b94b 39bc 1277 223c 29a5 613d bab0 04be
00000270: c091 043d b06f 55be 991e 203e f821 253e
00000280: bd8b a9bd 4fc1 adbd f708 d7bd 2c33 5fbd
00000290: 4db7 98bd 98ad 0bbd aeeb 62be 09a2 66bd
000002a0: fb89 213e 22cf 29bd 3762 003e e044 72bd
000002b0: dacb 143e e070 19be 6e95 96bc 1a78 443e
000002c0: 9754 013d c125 00be e9c8 b03a 6c72 3b3e
000002d0: b21b 223e 1b43 953d f4be 2e3e 2d00 fcbd
000002e0: c5d9 e73d f493 b1bd 6153 8bbd 67c1 4c3c
000002f0: 3ff0 53be c504 053d dd5e 7b3d 8f2e b1bd
00000300: e421 423c 15e0 393d b7df eabd c792 b6bc
00000310: 84ee f83c ef15 f0bd 3794 9abd b675 1c3e
00000320: c5be 44be 026e c3bc 5891 fb3d 0734 383d
00000330: 46f0 9a3d 170f 953c 6bbd 4bbe 829c fe3d
00000340: 45a1 bf3d 271c 983d b11d c7bd aee1 27bc
00000350: 30fa ba3c b133 f3bc 1814 5b3d 0e62 253e
00000360: b75e 3bbe 828e 0a3e 2791 23bc 715d 533d
00000370: 5d42 64bd 9c6d 193d e372 51bd 979f 163e
00000380: 0e48 b7bd 84f5 e63d 55fb f4bb f160 39be
00000390: b83a 783c 3985 a7bd 9cd2 903a 2c33 23be
000003a0: 25fb edbd ea55 18bc ae05 323c a4ca eabd
000003b0: bab1 da3d f5f0 c33d 5835 c23d bfd0 a63d
000003c0: ba20 58be 4af8 05be a915 513c 27f0 b7bd
000003d0: 1f00 ee3d 75ba 843d c097 2cbd 855d 2cbd
000003e0: ad0b 863d e404 c0bd 090f 1f3e 8acf 6bbd
000003f0: d460 013e cbfa 943b 17c6 153e 9308 7dbd
-0.23193489 0.1107453 0.1270248 0.12749998 -0.029206533 -0.033976234 0.030468848 -0.15921085
0.0069769965 -0.29664525 -0.10051417 0.1618913 0.1531715 0.20019235 0.029121844 -0.08345996
0.065384984 -0.10796826 -0.03292274 -0.14786364 -0.18387814 -0.024487024 -0.13064669 -0.11541882
0.057600576 0.14420763 -0.091013946 0.031539198 -0.12042525 0.08752516 0.18148005 0.12949297
-0.099889785 -0.050136857 0.04539233 -0.0036966403 -0.16679703 0.068385 -0.08702145 0.004989008
-0.032390635 -0.046487506 0.23914185 0.020801356 0.03639461 -0.057283316 -0.03925579 -0.061787155
0.09186369 0.20478798 -0.025799187 0.2058685 -0.17334647 0.010888517 -0.010609681 -0.019883964
-0.006686731 0.12891726 0.05035254 -0.044177376 -0.07846615 0.027548116 0.1065605 0.21046193
-0.008719628 0.17815381 -0.11948527 0.20644799 -0.0019942962 -0.069403306 -0.12449162 -0.09216906
0.109875254 0.04865886 -0.14304902 0.055263713 -0.17859364 0.16110286 0.19402903 -0.088788524
-0.1253136 -0.004347517 -0.029828863 0.08599838 0.076470956 0.021829313 0.13388936 0.12084725
0.022897849 0.025718007 -0.07378513 -0.19485855 0.026511727 0.05761061 -0.0022432625 -0.10071171
0.06151607 -0.097202815 -0.037087392 -0.13006136 -0.14321443 -0.14508025 -0.020765444 0.07787662
-0.017757043 0.13542461 -0.12207861 0.083433725 0.04724245 -0.008137294 -0.15095271 0.07185176
0.20372975 0.13688383 0.019893454 -0.1707893 0.058046695 0.046614498 0.124835335 -0.11211265
-0.018268477 0.08046879 0.041815717 -0.10386003 -0.114131555 0.0071169217 -0.05871608 0.1904891
0.02581267 0.15903324 -0.074608006 -0.08348492 0.1584048 0.027283125 -0.02356997 0.0024658698
0.15166308 -0.12154839 -0.07519705 0.16391496 -0.18584894 0.005546284 0.044760972 -0.092789374
-0.12558347 0.0084371315 -0.011092309 0.004755809 -0.01799289 0.18115419 -0.107587285 -0.20877337
-0.011309558 0.009916084 0.05508915 -0.12958041 0.03236556 -0.20843387 0.15636672 0.1612624
-0.08278606 -0.08484136 -0.10499757 -0.05449216 -0.07456837 -0.0341011 -0.22160217 -0.056306873
0.15775292 -0.041457303 0.12537466 -0.059147716 0.14530888 -0.14984465 -0.0183818 0.1918644
0.03157481 -0.12514402 0.001348761 0.18305367 0.15830877 0.0728819 0.1706503 -0.12304721
0.11320833 -0.08670798 -0.06803013 0.012497283 -0.20697115 0.03247525 0.061369766 -0.086514585
0.0118489005 0.045379717 -0.114684515 -0.022286786 0.03038717 -0.117229335 -0.07547801 0.15279278
-0.19213398 -0.023856167 0.122835815 0.044971492 0.0756536 0.018195672 -0.19896476 0.12432195
0.093569316 0.07427245 -0.0972246 -0.010246677 0.022824377 -0.029687734 0.05348596 0.16150686
-0.1829785 0.13530925 -0.0099833375 0.051602785 -0.05572735 0.037458047 -0.051134955 0.14709316
-0.0894929 0.11277297 -0.00747625 -0.18103386 0.015150718 -0.08179707 0.0011049095 -0.1593749
-0.11620168 -0.009297827 0.010865612 -0.11464432 0.1067843 0.09567443 0.09482831 0.08145284
-0.21106234 -0.13082996 0.012761512 -0.08981352 0.11621117 0.06480876 -0.042136908 -0.042081375
0.06545196 -0.09375933 0.15533079 -0.05757097 0.12634593 0.0045464984 0.14626347 -0.061775755

0 f4 [11]
00000000: 4eb8 853f 9c27 843f bde5 a33f 3a0f 823f
00000010: a5e4 873f e10d 823f 8243 a43f 1cc1 833f
00000020: 06fd 803f 4b71 853f d682 a43f
1.044687 1.0324588 1.2804486 1.0160897 1.0616652 1.0160486 1.2833102 1.0293307
1.0077217 1.0425199 1.2852428

1 f4 [11]
00000000: a31a 8c3f 2a69 823f 1c65 9d3f fb6f 873f
00000010: 51ec a23f ac8c 803f aa9d 983f bbaf 863f
00000020: 53c2 933f be6f 883f da64 b43f
1.0945629 1.0188344 1.2296481 1.0581049 1.2728368 1.004293 1.1923115 1.0522379
1.1543678 1.0659101 1.4093277

2 f4 [11]
00000000: c7c0 7e3f 97a4 893f afc0 a53f 98f4 873f
00000010: d36e 893f 47dd 6d3f 7aaa a23f 4359 823f
00000020: 6aee 823f 1b38 8f3f 157a aa3f
0.99512905 1.0753354 1.2949427 1.0621519 1.0736946 0.9291577 1.2708275 1.018349
1.0229008 1.1188997 1.3318506

3 f4 [11]
00000000: 4f18 863f 569c 853f 134a a73f 11f0 853f
00000010: 7573 8e3f 5412 713f 9f11 9d3f 8803 833f
00000020: ee5b 943f 5238 8b3f 6795 b63f
1.0476168 1.0438335 1.3069481 1.0463887 1.1128985 0.9416859 1.2271003 1.0235453
1.1590555 1.0876563 1.4264344

W f4 [11, 16, 16]
00000000: 7c44 09be 568e 6e3e b5b0 cc3d 2488 153e
00000010: 8afd 7e3c f019 4a3e 4acf 9dbe ce71 d9bd
00000020: b976 7bbd f5a2 6cbe 871b e5bd 1b8e aa3e
00000030: 77f4 90be 7031 583d 2e05 783e 0156 0fbd
00000040: 3e64 873d 9b95 41be 9526 07be 303b 1dbe
00000050: 3a1a 89be 7371 95bc 1d3e 0bbe a4eb 90be
00000060: 3ac6 923d 0c67 113e 6a89 e73d 82cd c6bd
00000070: ec8e a63d f09c 6f3e 76ea 123e 31db 0e3e
00000080: 95e5 ffbc a226 97bd f7c9 11bd 9a76 4cbd
00000090: 6760 7cbe 7e4e 0cbe 65cc a1bd 9e09 26be
000000a0: 86a2 463b 89f8 a53e 4101 2f3e bc94 913d
000000b0: 7d45 793e 339f 2abc 3c7c b93c 3735 e73d
000000c0: 9ef0 7d3e b7e2 d8bd b928 3b3e 0e8a 973e
000000d0: 1ed7 55be 08a7 053e 013e 863d 13bd 7ebd
000000e0: 129c 4ebe b41d 62be 8004 54be 7e28 43be
000000f0: 7b3f 213d ad24 0dbe 1ec8 a73d 6630 37bb
00000100: 0419 34be 48a6 823d 82ac a93e 00c5 c1bd
00000110: b2ee 2dbd f9ba 1b3d 91d0 43be 1547 643e
00000120: ca92 c83d d5ca 2f3e b195 543d b9bb d6bd
00000130: 68b8 d7bd dfac 813e ca67 293e b5e1 973d
00000140: c84c a3bd 5800 8dbb 7787 9b3e 11b1 013e
00000150: fdd0 053e 3ccf d63d 6b58 b6bd 7e20 a03d
00000160: 0754 6ebe bb26 3c3e 3841 03be 3026 18bd
00000170: 4193 f73d 4aec 50bd 803c 5cbe 5d06 abbd
00000180: 4671 543e a768 1f3e bc91 1c3c 1c4d c33c
00000190: 0898 0f3e 8b01 00bd b764 39bb e8b2 fabc
000001a0: 806a 203e b7a3 713e f36c 353e 5604 12be
000001b0: 582d 913e 9c7b e7bc 4070 7dbd 44fa 983d
000001c0: da48 283d 78d7 3bbd aded 9f3d b8d8 41be
000001d0: f42f 86bd 9fec 6f3d dbbc 8b3e 618c 973d
000001e0: ab5f f13b 60fe bbbd 9569 173e ecec 443e
000001f0: bd0f 533e 7a2f 743e 8630 a23e 2da6 95bd
00000200: 4fd9 0f3e ee26 173e 3cd2 f5bd 6d1d c03d
00000210: 2be4 fdbd 12c2 af3d 40a4 87bd 244d 893e
00000220: f7f0 4f3e ba39 753d 9539 13be b455 d6be
00000230: ebdf bd3d d961 a83e b69a c2bd cdad 183e
00000240: 41b4 5cbe 19a0 3dbb fed9 043e 8026 86be
00000250: 4cd1 063e f4c0 913d e20b d5bd 7f3b 9d3e
00000260: f4a8 96be 8e7b 1c3e 4d6f ddbd 2edc 083c
00000270: c4b9 553e 37b0 843e ad56 953b 2fcd 94be
00000280: f1ec febd 2d5f 0e3e ee9a d23c 2d72 473d
00000290: e5a9 353c b0a3 5c3e d1c4 04be bfd0 e7bd
000002a0: 4d98 2c3e b83c 2bbe 7758 31be 64f4 bf3d
000002b0: 7e0f 70be f330 e53d d094 71bd ca93 41be
000002c0: 884d 193c facd cdbb 22e8 77bd bf38 093d
000002d0: 61a6 e4bd 0d0f 203e 3f45 863d 3792 f93d
000002e0: f69c 893d 556c 903e 51e3 823d ef7b 1fbd
000002f0: 1f7f 713e 8e5e 073e 8e33 d13b 3c99 4ebe
00000300: 955f f1bd a0c5 9f3d fcbc 2dbe d21c 51be
00000310: 1ece 11bc 85df 1c3e 8b4b 873e 0df4 b23e
00000320: 1ea2 9e3d 03cb 003c 5029 113c 8fdf 0f3d
00000330: 5460 0e3d cbce aebd 0d48 183e fbe8 96be
00000340: f8db 183e eb52 883e 66e5 fa3d 6940 d4bd
00000350: d58b 54be 5116 b5bd 8929 6fbe 4b01 af3e
00000360: 3448 983e 61a3 1c3d c79e 393e ecb7 2dbe
00000370: 7388 4a3e 27d0 a53e 865b 703e 1538 f93d
00000380: 2452 913e bdd1 e2bd 518f 613d d1ec eebc
00000390: 009b 1dbe 9155 04be f825 86bd 62ed 0ebe
000003a0: 4af4 8abe b249 7cbd 7da9 4f3e bd38 3a3e
000003b0: a7b4 b53d 2c51 6e39 9016 023e 10a7 9cbd
000003c0: 60b6 063d 37d6 5bbd 7960 83bd d6ab bd3d
000003d0: 9c05 ba3d 3611 08bd 42ee 5c3e ccc0 10be
000003e0: 64a4 4e3e 3aee ba3c d69b d93d 3ce3 1cbe
000003f0: bf7d 423e c4c4 993e 8509 dcbd 666b 0d3d
-0.13405031 0.23296484 0.09994642 0.14602715 0.015563378 0.19736457 -0.30822212 -0.1061741
-0.06139252 -0.23109038 -0.11186891 0.33311543 -0.28311512 0.052781522 0.24220726 -0.03499413
0.066109166 -0.18904726 -0.13198312 -0.1535461 -0.26777822 -0.018242573 -0.13597913 -0.2830478
0.07166715 0.14199466 0.113055065 -0.09707166 0.08132729 0.2339971 0.14347252 0.13950802
-0.031237403 -0.073804155 -0.035593 -0.049917795 -0.2464615 -0.13701817 -0.07900313 -0.16214606
0.0030309274 0.3241618 0.17090322 0.07108447 0.24342914 -0.010413933 0.022642247 0.11289447
0.2479882 -0.105901174 0.18277253 0.29597515 -0.20882842 0.13051999 0.06554795 -0.062192034
-0.20176724 -0.22081643 -0.20704842 -0.19058415 0.03936718 -0.13783522 0.08192466 -0.0027952432
-0.17587668 0.06379372 0.33139426 -0.09461403 -0.042463966 0.038020108 -0.1912253 0.2229274
0.09793623 0.17167218 0.05190057 -0.10485024 -0.105332196 0.25327203 0.16543499 0.07416097
-0.07973629 -0.0043030195 0.3037679 0.12665202 0.13068004 0.104887456 -0.08903583 0.078186974
-0.23274241 0.1837415 -0.12817848 -0.037145793 0.12088633 -0.051006593 -0.21507454 -0.08350823
0.20746335 0.15567265 0.00955623 0.02384048 0.14022839 -0.03125147 -0.002828879 -0.030602887
0.15665627 0.23597609 0.17717342 -0.14259467 0.28354907 -0.028257184 -0.061874628 0.074696094
0.0410851 -0.045859784 0.07809005 -0.18930328 -0.06552115 0.05857527 0.27292523 0.07399822
0.007366141 -0.091793776 0.1478637 0.19231004 0.20611472 0.23846236 0.31677645 -0.07307086
0.1404774 0.14760944 -0.1200299 0.093806125 -0.12397035 0.08581938 -0.06623125 0.26816666
0.20306765 0.059869505 -0.14377435 -0.4186226 0.092712246 0.32887152 -0.09502165 0.1491005
-0.21553136 -0.0028934537 0.12973782 -0.26201248 0.13165778 0.07116881 -0.10402657 0.30709454
-0.29425776 0.15281507 -0.108122446 0.008353276 0.20871645 0.2591569 0.0045574517 -0.29062793
-0.12447537 0.13903494 0.025708642 0.04869287 0.011087869 0.21546817 -0.12965705 -0.11319112
0.16854973 -0.16722381 -0.17318903 0.09372786 -0.2344341 0.11190977 -0.05897981 -0.18904033
0.009356864 -0.006280658 -0.060524113 0.033501383 -0.11164547 0.15630741 0.065561764 0.121860914
0.06719391 0.2820765 0.063910134 -0.03893655 0.23583649 0.13219664 0.0063843196 -0.20175642
-0.11785809 0.07801366 -0.16966623 -0.2042115 -0.00889924 0.15319641 0.26424822 0.3495182
0.07745765 0.007860902 0.008859947 0.03512531 0.034759834 -0.085355364 0.14871235 -0.29474625
0.14927661 0.2662576 0.122507855 -0.10363848 -0.20756467 -0.08842147 -0.23355688 0.34180674
0.29742587 0.038241748 0.18126975 -0.16964692 0.19778614 0.3238537 0.23472413 0.121689
0.2838298 -0.11075161 0.055068318 -0.029165657 -0.15391159 -0.12923266 -0.06550211 -0.13957742
-0.27139503 -0.06159372 0.20279498 0.18185706 0.08872347 0.00022727688 0.1270392 -0.07649052
0.03288877 -0.053671088 -0.06414885 0.09261291 0.09083101 -0.03321954 0.21575263 -0.14136046
0.20179898 0.022818673 0.106254265 -0.15321058 0.18993281 0.30032933 -0.10744003 0.03452625

W f4 [11, 16, 16]
00000000: c793 053c 1023 9fbd 3041 283d 0a37 b0bd
00000010: 656c de3d 3186 463e 539c 94bd 5544 27be
00000020: f88a 86be d7ac 5a3b a189 aabe acd4 443e
00000030: 94ca 8dbd 24a9 31be b9c9 853d 00b3 4b3e
00000040: 5f0f 47be d465 52bd 0c80 043e 3b31 b53b
00000050: 93fc f63d 69dc 863e f6ed 3f3e d833 163e
00000060: ffc6 353e 1384 5f3e 4c1e 18be a4b9 a43d
00000070: bdee 91bd 9d2f babc 1ac5 87bd c4a3 223e
00000080: e0f7 ce3d 8817 cabd 5cbd 553c 8f0c 3ebc
00000090: 2a38 14be 87a6 8abd 740d 1e3e db70 07be
000000a0: c0e3 cdbe 6a4a b73c 268c 2f3e a65b 82be
000000b0: 860e 0b3e 52ab 843d 293b cebd b4bb 883e
000000c0: 083f f93d bcfa c7be 4b13 48be 1015 32be
000000d0: 048c a6bd 9dc2 813e 79e5 e83c 1db0 523d
000000e0: 89ff 51be 3f42 59be 52c9 403d 7cc7 bd3e
000000f0: 6647 e83d 1391 7bbe 2210 27be 6fa9 04be
00000100: f8fd 0bbe 0d81 aabd 82ad 063d e774 693d
00000110: 9c31 713c 50ea f8bd d9dc af3d cbac 3c3e
00000120: e5a3 c03d cca3 5b3e 5a12 1cbe f66c 643d
00000130: 22fd 9e3e 0889 93bd 40a9 f9bd 263e 8ebd
00000140: 3229 223e b9ea 8f3e ccf7 c33d 5f40 673e
00000150: 850e 4cbe 8e91 83be 0813 7c3e 114c 2f3e
00000160: ea2b 33be fe6e 8f3e b990 43be 7993 a0be
00000170: 1c5b a93c 51e3 843e 2ff6 9cbe 86c7 6fbd
00000180: 6581 83be b892 0fbd a219 17be a429 903d
00000190: 3168 8cbe 7e8a 8fbd ae11 d0bd 3ad1 0a3e
000001a0: 4b6e 13be ed12 873e 0717 4d3e e377 393e
000001b0: 6826 243e 3388 31be 513f f13d 8d84 75be
000001c0: 28c8 a9bc 0358 e83d 5d69 393d dadc 3bbd
000001d0: f75f 803d de34 4a3e 9d5f 40be 680e 8f3e
000001e0: da77 023d 93e8 0abe d9ed 8c3d d18a 8c3e
000001f0: aa4b 28be d9d3 ed3d e198 e43d 8237 f33c
00000200: 111c 26bd 72b9 0d3e d49a 5b3e 3107 373d
00000210: 29aa 19be b124 84bd 13bd a9bd 0a37 e8bc
00000220: 1f67 243e 29d3 003c 7dd2 123d 6198 ccbd
00000230: 7631 a5bb e150 4bbd 7751 98bc 92d9 393e
00000240: 6fe0 8ebe 726a ee3d cd10 073e c7c0 963d
00000250: b657 813c fe3d 2f3e 93c5 853e a517 853e
00000260: df1b 773e 96fc dc3d 27ad 063e 748b 1c3e
00000270: 7034 19be 6d9c bcbd 3969 84bd 41c1 61be
00000280: a3ef 663d 4beb 69be 424b 3e3e 3f69 03be
00000290: 8531 d9bd ec62 283e 512c 4bbe d5ca 813d
000002a0: dc25 42be 8c07 203e f628 48be 54bb 703e
000002b0: a199 00be 4527 33be e76d 4abd 9543 6d3d
000002c0: 2d77 34be 9efd 6bbe dbae 75be 6b5f 433e
000002d0: ca63 88be 1a68 9bbe dbec 7e3e 6a24 4dbe
000002e0: 8c21 38bd b06d b1bd 5a13 9b3e 6679 653e
000002f0: 86cd 963d 4767 22be a222 0dbd 2730 533d
00000300: 8046 fdbd 8e8c a03e 0d6b 8bbd b75e 253d
00000310: f034 173e ced0 9abd 82f3 5c3c 3489 50be
00000320: dbb7 39be f9db 443e e78b 293e a9be cabd
00000330: b920 6cbe fc1e f73d 734e 2bbe 1ecc 34be
00000340: 6ad0 3bbe 31d5 7b3e 2dc2 38be 3684 69be
00000350: 2b00 87bd 9bb1 85be 91b8 743e 6469 b33d
00000360: a11e 3abe 49b5 d63c 19ac 30be 1f93 34bc
00000370: e517 4fbe a813 7abe 7f5e 17be 21b9 133e
00000380: 1250 86be 0600 d63d 607f d6bb ac7a 7e3d
00000390: 940f de3d 7c32 813e bc56 32be 6c58 243e
000003a0: 8640 ea3d 532e 953d 7252 203d 08ae 843e
000003b0: 5f90 933e 17e7 d3be d65c 273e 2320 783e
000003c0: d1cf ab3d e64f 0b3e 9bb0 2bbb ca5b 9d3d
000003d0: 93ea b73c 9707 52be 36f8 24bd 609f 66be
000003e0: d712 94bd 636e ac3d 7e7a 2ebe ea27 37be
000003f0: 4997 1bbe 731d 95bd df18 5fbe 55fd 493d
0.008152909 -0.077703595 0.041077793 -0.08604248 0.10860518 0.19387127 -0.07256379 -0.1633466
-0.262779 0.003336718 -0.33308128 0.19221753 -0.06923404 -0.17349678 0.06532616 0.19892502
-0.19439457 -0.051366642 0.12939471 0.0055295504 0.120598935 0.26340035 0.18743119 0.14668214
0.17751692 0.21827726 -0.14855307 0.08043221 -0.07125614 -0.022727782 -0.06629391 0.15882784
0.10105872 -0.098677695 0.013045635 -0.011599674 -0.1447455 -0.06770044 0.1543482 -0.13226645
-0.40212822 0.02237435 0.17143306 -0.25460547 0.13579759 0.06477989 -0.10069878 0.26705706
0.121702254 -0.39058483 -0.1953861 -0.17390847 -0.081321746 0.2534379 0.028429734 0.051437486
-0.20507635 -0.21216677 0.047066994 0.37066257 0.11341743 -0.2456706 -0.16314748 -0.12955259
-0.136711 -0.08325396 0.032880314 0.056996252 0.0147213 -0.121540666 0.08587045 0.1842529
0.094062604 0.21449202 -0.15241376 0.055767976 0.310525 -0.07203871 -0.12190485 -0.069454476
0.15836027 0.28108767 0.09568748 0.2258315 -0.19927414 -0.25696987 0.24616635 0.17118861
-0.1749722 0.28014368 -0.19098176 -0.31362513 0.020673327 0.2595468 -0.30656573 -0.05853989
-0.25684658 -0.03505203 -0.14755872 0.07039192 -0.27423242 -0.07008837 -0.10159622 0.13556376
-0.14397542 0.26381627 0.20028315 0.1811214 0.16030276 -0.17337112 0.11779655 -0.23976345
-0.020725325 0.11344912 0.045266498 -0.045864917 0.06268304 0.1974673 -0.18786474 0.2794068
0.03185258 -0.13565283 0.06881303 0.2744966 -0.16435114 0.11612672 0.11161972 0.029689554
-0.04055411 0.13840273 0.21445781 0.044684593 -0.15006317 -0.06452311 -0.08288016 -0.028346557
0.16054963 0.0078628445 0.03584527 -0.099900015 -0.0050412966 -0.04963768 -0.018593533 0.18149403
-0.27905604 0.116413966 0.13190003 0.07360988 0.015788894 0.17113492 0.261273 0.25994602
0.24131726 0.107903644 0.1315199 0.15287572 -0.1496141 -0.09209523 -0.06465382 -0.22046377
0.05638088 -0.22843663 0.18583396 -0.12833117 -0.10605148 0.16443986 -0.19841124 0.06337515
-0.18959755 0.15627879 -0.19546875 0.2350896 -0.12558605 -0.17495449 -0.049421217 0.05792578
-0.17623587 -0.23045966 -0.23992483 0.19079368 -0.26638633 -0.3035286 0.2489504 -0.20033422
-0.044953868 -0.08663499 0.30288202 0.22409591 0.07363419 -0.1585971 -0.034456857 0.051559594
-0.123669624 0.31357235 -0.06807528 0.04037353 0.14766288 -0.075593576 0.013485791 -0.20364839
-0.18136542 0.19224538 0.16557275 -0.09899647 -0.23059358 0.12066457 -0.16729145 -0.1765599
-0.18341222 0.24593045 -0.18042822 -0.2280434 -0.06591829 -0.26112065 0.23898531 0.08760336
-0.18175747 0.02620949 -0.1725315 -0.0110214045 -0.20223959 -0.24421561 -0.14782141 0.1442609
-0.26232964 0.10449223 -0.006545946 0.062128708 0.10842815 0.2523383 -0.17415899 0.16049355
0.11438088 0.07284226 0.039141126 0.25914025 0.28821084 -0.41387245 0.16344008 0.24231009
0.08389247 0.13604698 -0.0026197794 0.07683523 0.02245072 -0.20510708 -0.040275775 -0.22521734
-0.07230156 0.08419492 -0.17038915 -0.1788632 -0.1519443 -0.072810076 -0.21786831 0.049313862
