gnn_models/dataset/ciao/models/pinsage.pt (torch, 408208 bytes, 66 tensors)

weight f4 [128, 16]
0	0x3e7039d7	0.23459564
1	0xbe87b721	-0.26506904
2	0x3e079b96	0.13242945
3	0x3d4bdac5	0.04976918
4	0xbe67b7b5	-0.22628672
5	0xbc04c7fa	-0.008104319
6	0xbe3b651f	-0.18300293
7	0xbe4b9b27	-0.19883405
8	0x3e8d35af	0.2758002
9	0xbd27fbae	-0.041011505
10	0x3cc0eb89	0.023549812
11	0xbe4fa3d0	-0.20277333
12	0x3b0a0e5c	0.0021065688
13	0xbddc030d	-0.107427694
14	0xbc867c84	-0.016416796
15	0xbe77a939	-0.24185647
16	0xbdee27e4	-0.11628702
17	0xbdf57ee2	-0.119870916
18	0x3ddea821	0.10871912
19	0xbd66fc8a	-0.056393184
20	0x3da0becb	0.07848891
21	0xbe1cf40a	-0.15327469
22	0xbe18208c	-0.14856166
23	0xbe0ffde0	-0.1406169
24	0xbd739945	-0.05947234
25	0xbd63ec6c	-0.05564539
26	0xbe4c7353	-0.19965868
27	0x3dcd1046	0.100128695
28	0x3cf9b782	0.030483011
29	0xbe2d04b8	-0.16896331
30	0x3d4da4e1	0.05020607
31	0xbe199d9e	-0.15001532
32	0x3e1de083	0.15417676
33	0xbe6eba18	-0.23313177
34	0xbe7acab4	-0.24491388
35	0xbe722ac4	-0.23649126
36	0xbd20e1e7	-0.039277937
37	0xbe4abd09	-0.19798674
38	0xbca6ea04	-0.02037526
39	0xbe00d5cd	-0.12581559
40	0xbe4dc035	-0.20092852
41	0xbdedfd02	-0.11620523
42	0xbcc07067	-0.023491098
43	0x3e6703be	0.22560021
44	0xbd9045cb	-0.07044562
45	0x3e47de82	0.19518474
46	0x3d3258cb	0.04354171
47	0xbd945531	-0.072428115
48	0x3e8f76ea	0.28020412
49	0xbb43b110	-0.0029860176
50	0x3d2b58e1	0.04183281
51	0x3d7b15f6	0.06130024
52	0xbdcabc7a	-0.0989923
53	0xbe14a149	-0.1451465
54	0xbd8d2d5e	-0.06893419
55	0xbe40fb80	-0.1884594
56	0xbdaf5e1b	-0.08562871
57	0x3df967de	0.12178014
58	0xbe985161	-0.29749587
59	0xbdd2b20c	-0.10287866
60	0x3b5b6a11	0.0033479969
61	0xbc8da155	-0.017288843
62	0x3d71fa03	0.05907632
63	0xbdd28678	-0.10279554
64	0xbdaecccc	-0.08535156
65	0xbddc6cdc	-0.10762951
66	0xbe41b263	-0.18915705
67	0xbe809e5d	-0.25120822
68	0x3e4ede20	0.20201921
69	0x3cb99f41	0.022658946
70	0xbd851cc5	-0.06499628
71	0x3d82dab9	0.06389374
72	0xbe33f818	-0.17575109
73	0xbe8f11c5	-0.27943245
74	0x3da4cac9	0.08046491
75	0x3daf7074	0.085663706
76	0x3d15d2a7	0.036577847
77	0xbdff40f3	-0.1246356
78	0xbccd6d65	-0.025076577
79	0xbd207e49	-0.039182935
80	0xbe1e2596	-0.15444025
81	0xbe42430f	-0.18970893
82	0x3e6621a5	0.22473772
83	0x3db1e290	0.086857915
84	0xbe448209	-0.1919023
85	0x3dcde687	0.10053735
86	0xbe6204fa	-0.22072211
87	0xbe3e25f4	-0.18569165
88	0x3e5c80a6	0.2153345
89	0xbdcecbda	-0.10097475
90	0xbda6ab5d	-0.08138154
91	0xbe4a8c9c	-0.197802
92	0xbe0e4bbd	-0.1389608
93	0x3df153c4	0.11783555
94	0xbe70ba70	-0.2350862
95	0xbcbea490	-0.023271829
96	0x3e1ffc82	0.15623668
97	0x3d116c8c	0.03550391
98	0x3dd9ec27	0.106407456
99	0xbe88be35	-0.26707616
100	0xbe50da65	-0.20395811
101	0xbd9be2e9	-0.07611639
102	0xbdf2541b	-0.11832448
103	0x3d795ddd	0.06088053
104	0xbe878c96	-0.26474446
105	0xbd8ceb04	-0.06880763
106	0x3e3bc1de	0.18335673
107	0xbd116849	-0.035499845
108	0xbe6c3bb4	-0.2306965
109	0x3c395587	0.011311895
110	0x3e19da05	0.15024574
111	0x3e5e8961	0.21732093
112	0x3e74cb12	0.2390559
113	0x3e609700	0.21932602
114	0xbd36b6d1	-0.04460794
115	0x3dc737e6	0.09727459
116	0x3cc06378	0.02348493
117	0x3e42bfb9	0.19018449
118	0xbe72d357	-0.23713432
119	0x3e2eac80	0.17057991
120	0x3e1d3e2e	0.15355751
121	0xbdfec923	-0.124407075
122	0x3e5992a7	0.2124735
123	0x3d0c0051	0.03417999
124	0x3e471e4f	0.19445156
125	0xbd3f97eb	-0.04677574
126	0x3cfb882d	0.030704582
127	0xbe7f5a08	-0.24936688
128	0xbe601c45	-0.21885784
129	0xbe307679	-0.17232694
130	0xbe101bf7	-0.14073168
131	0xbd93be12	-0.072139874
132	0x3c003e02	0.007827284
133	0x3d8e9e10	0.06963742
134	0x3e716ada	0.23575917
135	0xbe87d17a	-0.26527005
136	0xbe94df48	-0.290766
137	0x3e111303	0.14167409
138	0x3e29958e	0.16560957
139	0xbcfc3e35	-0.030791381
140	0x3d3a4dec	0.04548447
141	0x3e53a61e	0.20668837
142	0x3e1a1fb2	0.15051153
143	0xbd9f39e5	-0.077747144
144	0x3de60439	0.11231274
145	0xbdcc6ef1	-0.09982098
146	0xbe2191e5	-0.1577831
147	0xbe42f11b	-0.19037287
148	0x3e897fb5	0.26855245
149	0xbdce808c	-0.10083112
150	0x3dcea2f0	0.100896716
151	0x3d22bbb0	0.039729774
152	0xbe0a3b55	-0.13499196
153	0x3e82d554	0.2555338
154	0x3d1c3345	0.038134832
155	0x3c6fbd7e	0.014632581
156	0xbd48e49e	-0.04904615
157	0x3e19b80f	0.15011619
158	0xbdf467be	-0.1193385
159	0xbd9da961	-0.07698322
160	0x3db999bc	0.09062526
161	0xbe821e84	-0.25413907
162	0xbdb43ece	-0.088010415
163	0xbe813e4e	-0.25242847
164	0x3de8c2dd	0.11365292
165	0x3e277fcb	0.16357343
166	0x3e2b0c13	0.16703825
167	0xbcb8e05c	-0.02256792
168	0xbc47065a	-0.01214751
169	0x3bacfd66	0.005279231
170	0x3d374686	0.04474499
171	0xbe3d8fa9	-0.18511833
172	0x3d8d50e3	0.069001935
173	0x3dcd82eb	0.10034736
174	0xbdd9f79d	-0.106429316
175	0xbe6d5dc1	-0.23180296
176	0xbd699013	-0.057022166
177	0xbda62e9f	-0.08114361
178	0x3bebcb02	0.0071958313
179	0xbe3232d7	-0.17402206
180	0xbdf150bc	-0.11782977
181	0x3dc22a53	0.09480729
182	0x3e2e19aa	0.17001978
183	0x3d629d19	0.0553256
184	0x3d8f6ea7	0.07003527
185	0xbe6229bf	-0.22086237
186	0xbca3b3a8	-0.019983128
187	0xbe14cfac	-0.14532346
188	0x3e4862b1	0.19568898
189	0x3df012e2	0.117223516
190	0xbd8e3763	-0.06944158
191	0xbddfb8a1	-0.10923887
192	0xbda9fcee	-0.08300196
193	0x3d8f375f	0.06992983
194	0xbc97baab	-0.018521627
195	0x3d362032	0.044464298
196	0x3e9cffc5	0.30663887
197	0x3e66c468	0.2253586
198	0x3d859657	0.06522816
199	0x3e819cfa	0.25315076
200	0xbc9b225a	-0.018937279
201	0xbd839897	-0.064255886
202	0xbdb16e78	-0.08663648
203	0xbe4deaf4	-0.20109159
204	0x3e2da81b	0.16958658
205	0xbdb9ea64	-0.090779096
206	0x3bfa64cd	0.007641411
207	0xbc5d785f	-0.013517468
208	0xbe837acd	-0.25679627
209	0x3e4b81ce	0.19873735
210	0xbe5822af	-0.2110698
211	0x3e7fa16c	0.24963921
212	0xbdb63ec9	-0.08898694
213	0xbc59bbf0	-0.013289437
214	0x3e02bdda	0.12767735
215	0xbe5e228b	-0.21692865
216	0x3e026b3c	0.12736219
217	0x3db639c0	0.08897734
218	0x3da64b94	0.08119884
219	0x3da92aa6	0.08260088
220	0x3cb0179e	0.021495637
221	0x3e6a3360	0.2287116
222	0xbe48e324	-0.19617897
223	0x3e0ae127	0.13562451
224	0xbe7f2dae	-0.24919769
225	0x3e56420b	0.20923631
226	0xbde153fd	-0.110023476
227	0x3dbe35e3	0.09287622
228	0x3d1027b3	0.03519411
229	0x3e66f6eb	0.22555129
230	0x3d453cd5	0.048153717
231	0xbe7d734f	-0.24751018
232	0xbe59de9d	-0.21276326
233	0xbe2b86f2	-0.16750696
234	0xbe3db77d	-0.18527026
235	0x3e0819c9	0.13291086
236	0x3c821f65	0.01588411
237	0x3d7535d9	0.059865806
238	0x3d650ee2	0.055922396
239	0xbe88c857	-0.26715347
240	0xbe674f3d	-0.22588821
241	0x3e1114b9	0.14168061
242	0xbd09abe6	-0.0336112
243	0x3e1fdbd5	0.15611203
244	0x3e698ced	0.22807665
245	0xbcc5b56a	-0.024134357
246	0xbde0ec98	-0.10982627
247	0xbb25c754	-0.002529581
248	0xbe5d8f70	-0.21636748
249	0x3d47c36b	0.04877035
250	0x3dacbb2e	0.08434139
251	0x3e45450d	0.19264622
252	0xbe84649d	-0.25858012
253	0x3e08b3c4	0.13349825
254	0xbdd2ab8b	-0.102866255
255	0xbdae8f0d	-0.085233785

weight f4 [128, 16]
0	0xbe4f747c	-0.20259279
1	0xbdc95088	-0.09829813
2	0xbd62cec1	-0.055372957
3	0x3db06c5f	0.0861442
4	0x3ddbd4a5	0.10733918
5	0xbe42d4c4	-0.19026476
6	0x3c46fdcd	0.012145472
7	0x3dde9099	0.108674236
8	0xbe2a0f54	-0.1660741
9	0xbc10f6dd	-0.008847919
10	0xbd8b8769	-0.06812937
11	0xbdeea0b1	-0.11651743
12	0xbd56cdc7	-0.05244234
13	0x3e2c1214	0.16803771
14	0xbcf64509	-0.030062215
15	0x3e13f950	0.14450574
16	0x3d64dd67	0.05587521
17	0xbe76882a	-0.2407538
18	0x3dbac583	0.091197036
19	0xbe042d23	-0.12907843
20	0x3e1532b1	0.14570118
21	0x3da8ad34	0.08236161
22	0x3e9591dc	0.29212844
23	0x3e5e0c8b	0.21684472
24	0xbe457e96	-0.1928657
25	0x3d4fa272	0.05069203
26	0x3e5c1189	0.21491064
27	0x3de1293f	0.10994195
28	0xbd2273bc	-0.039661154
29	0x3e712507	0.23549281
30	0xbdecbe74	-0.115597636
31	0x3e3a8be8	0.18217432
32	0xbe03ea52	-0.12882355
33	0x3d31453e	0.043278925
34	0xbe5e55a5	-0.21712358
35	0x3e2d89df	0.16947125
36	0x3e21fbb6	0.15818676
37	0xbd069ce0	-0.03286445
38	0x3dbd966a	0.09257205
39	0x3e0dabba	0.1383504
40	0x3e1017bb	0.14071552
41	0x3e6c47be	0.23074242
42	0xbd8069ff	-0.06270217
43	0x3c8edb6b	0.017438611
44	0x3dfd3110	0.123628736
45	0x3e6b1536	0.2295731
46	0xbe4b0f9d	-0.19830175
47	0xbe58570e	-0.21126959
48	0xbd98fd5b	-0.07470199
49	0xbe56ec13	-0.20988493
50	0xbdc33151	-0.09530891
51	0xbbcfa7d5	-0.006337146
52	0xbd1f08f9	-0.038826916
53	0x3d4be196	0.049775682
54	0xbde56dbf	-0.11202573
55	0xbe2bd16d	-0.16779108
56	0xba47c6ea	-0.0007620888
57	0x3e3d08df	0.18460415
58	0x3dd5eb11	0.10445226
59	0xbc03f504	-0.008054022
60	0xbdce1707	-0.10062986
61	0x3e01613b	0.12634747
62	0x3dfe1987	0.12407213
63	0x3e0e889b	0.13919298
64	0xbe048d8b	-0.1294462
65	0x3db3f95c	0.08787796
66	0xbe484ef2	-0.19561365
67	0xbe476980	-0.19473839
68	0xbcb92c00	-0.022603989
69	0x3cb96124	0.022629328
70	0x3e7aee23	0.24504904
71	0x3def9933	0.11699142
72	0xbd617120	-0.055039525
73	0x3e6126cd	0.21987458
74	0x3d42ebe0	0.04758823
75	0x3e8630a8	0.26208997
76	0x3d0a432c	0.033755466
77	0x3e75a038	0.239869
78	0xbdcca4a4	-0.0999234
79	0x3e583222	0.21112874
80	0x3e7115e1	0.23543502
81	0x3e8a3f71	0.27001527
82	0xbdec2fd1	-0.11532558
83	0xbe506ab3	-0.20353203
84	0x3c35b53a	0.011090571
85	0xbe281923	-0.16415839
86	0xbe5d066b	-0.2158448
87	0x3d1bba8e	0.03801971
88	0xbd9d9955	-0.076952614
89	0xbe41450a	-0.18873993
90	0x3d55d846	0.052208208
91	0x3d2bcb29	0.041941795
92	0xbe2e9e5e	-0.170526
93	0xba5d0919	-0.00084318366
94	0xbd904bb1	-0.07045687
95	0xbc861f4f	-0.016372351
96	0xbda4faab	-0.080556236
97	0xbd00374c	-0.031302735
98	0x3e62456a	0.22096792
99	0xbe0fea75	-0.14054282
100	0xbe594fb5	-0.21221812
101	0xbe7c60af	-0.24646257
102	0xbd9ea4ad	-0.07746253
103	0xbcd00329	-0.025392132
104	0x3e37563a	0.17903987
105	0xbd29610b	-0.041352313
106	0x3e48e787	0.1961957
107	0x3e64d46d	0.22346659
108	0xbe521ac7	-0.20518027
109	0x3e57f2b7	0.21088682
110	0x3dc30b73	0.09523668
111	0xbe131b7e	-0.14365956
112	0xbe0c5ac6	-0.13706502
113	0xbdf2a783	-0.118483566
114	0x3d5a808e	0.053345256
115	0x3e27ae59	0.16375102
116	0x3e2858b9	0.16440095
117	0xbe143416	-0.14472994
118	0xbdbcc8cf	-0.09217989
119	0x3e5ed89a	0.21762314
120	0xbda61374	-0.08109179
121	0x3e4b2a7c	0.19840425
122	0xbe6134af	-0.21992753
123	0xbd673c4b	-0.056453984
124	0x3d2f2779	0.042762253
125	0xbe21778c	-0.1576826
126	0xbe0ded4b	-0.13860051
127	0x3da0ee71	0.07857979
128	0x3dba4d17	0.09096735
129	0xbdd95280	-0.10611439
130	0xbd6b9f26	-0.057524823
131	0x3c1278be	0.00893992
132	0xbdd2d3a1	-0.10294271
133	0xbe62bcb5	-0.22142299
134	0xbe0fa5ec	-0.14028138
135	0x3d9003f6	0.070320055
136	0xbd339804	-0.043846145
137	0xbcffc98b	-0.031224033
138	0xbe18c4d3	-0.14918832
139	0x3deb8dbb	0.11501642
140	0x3e57541d	0.2102818
141	0xbe0462f2	-0.1292837
142	0xbe337e5a	-0.17528668
143	0xbe5ac1d4	-0.21363002
144	0x3e7a17bd	0.24423118
145	0x3e4e03cb	0.20118634
146	0xbe2341da	-0.15943089
147	0xbc590444	-0.013245646
148	0x3deaa15c	0.11456558
149	0xbe200382	-0.15626338
150	0x3d4a0d18	0.049328893
151	0xbc1d5038	-0.009601645
152	0x3d97e2ec	0.07416329
153	0xbe4a960f	-0.19783805
154	0xbdd2e4f4	-0.102975756
155	0x3d079243	0.03309847
156	0xbe4ad8a9	-0.19809212
157	0xbc7def5b	-0.015498961
158	0x3e2abab6	0.16672787
159	0xbdff4326	-0.124639794
160	0xbe3bdfef	-0.18347143
161	0xbe6855f0	-0.22689033
162	0xbe762d94	-0.24040824
163	0xbddecdc5	-0.10879091
164	0xbe8d5aee	-0.27608436
165	0xbab6888f	-0.0013926196
166	0xbe82f54a	-0.25577766
167	0x3e134190	0.14380479
168	0xbe70baf9	-0.23508824
169	0xbe6ee3b8	-0.23329055
170	0xbdb0b472	-0.08628167
171	0xbe240013	-0.16015653
172	0xbe1b2679	-0.15151395
173	0xbe1802f5	-0.14844878
174	0x3cc41f2c	0.023940645
175	0xbc4028f5	-0.011728515
176	0x3e396862	0.18106225
177	0xbe2fc9d8	-0.17166841
178	0xbe7611a3	-0.24030165
179	0x3e18a1da	0.14905491
180	0xbdd7226b	-0.105046116
181	0xbe0bb405	-0.13642891
182	0xbe002629	-0.12514557
183	0x3b23311e	0.0024901102
184	0x3e884895	0.26617876
185	0x3df9cc20	0.12197137
186	0x3e19a0da	0.15002766
187	0x3dbf9945	0.09355406
188	0x3c814b61	0.015783014
189	0xbccb2ccf	-0.02480164
190	0x3e73b6e4	0.23800236
191	0xbe809957	-0.2511699
192	0x3e357c08	0.17723095
193	0x3df6908e	0.1203929
194	0xbcf40906	-0.029789459
195	0xbd44d8ac	-0.048058197
196	0x3d9780b4	0.07397595
197	0x3d8ff795	0.070296444
198	0xbe2a7941	-0.16647817
199	0x3da67f25	0.0812972
200	0xbe51296b	-0.20425956
201	0xbe842f05	-0.25817123
202	0x3dcae6ed	0.09907327
203	0xbd1908df	-0.037361976
204	0xbde91163	-0.113802694
205	0x3db18976	0.08668797
206	0xbde76e0f	-0.11300289
207	0x3d3f5e29	0.046720657
208	0xbd71ea5e	-0.0590614
209	0x3de4e4c7	0.11176448
210	0xbdc3b26e	-0.09555517
211	0x3df33c63	0.11876752
212	0xbe489f3d	-0.19591995
213	0xbe49d505	-0.19710167
214	0xbbd35d44	-0.006450327
215	0xbe0ddfdc	-0.13854927
216	0x3e3cf5fe	0.18453214
217	0x3e0e4e6b	0.13897102
218	0x3dfbe2d0	0.122991204
219	0x3d416358	0.047213882
220	0xbd813aca	-0.06310041
221	0xbe3347fe	-0.17507932
222	0xbe199018	-0.14996374
223	0xbd5f81b8	-0.05456707
224	0xbe032472	-0.12806872
225	0xbe07534c	-0.13215369
226	0x3da85d35	0.08220903
227	0xbe6a0d8c	-0.2285673
228	0xbd94b210	-0.07260525
229	0x3e2e81e3	0.17041735
230	0x3dc117ec	0.09428391
231	0xbe338cb1	-0.17534138
232	0xbe8b9d8f	-0.27268645
233	0xbdc9a9f1	-0.09846867
234	0x3e07ddac	0.13268155
235	0x3e7f8e98	0.24956739
236	0x3d00da4d	0.031458188
237	0x3c6eed42	0.014582934
238	0xbe376b1d	-0.17911954
239	0xbe0c19d6	-0.1368173
240	0xbe63546c	-0.22200173
241	0x3e21d58f	0.15804122
242	0xbdd5966f	-0.104290836
243	0x3e83d8c0	0.25751305
244	0xbe1cc4a5	-0.15309389
245	0xbe81cbc0	-0.2535076
246	0xbcc7d1da	-0.024392057
247	0xbe194371	-0.14967133
248	0xbd1d2eee	-0.038374834
249	0x3dcb29a0	0.09920049
250	0xbe77ace1	-0.24187042
251	0xbd808e2f	-0.06277119
252	0xbe6b6eaf	-0.22991441
253	0xbe4264be	-0.18983743
254	0x3e3c1155	0.18365987
255	0xbca61580	-0.020273924

bias f4 [128]
0	0x3caac083	0.02084375
1	0x3e4eefa8	0.20208609
2	0x3d672279	0.05642936
3	0x3df19f20	0.11797929
4	0xbdc2ea87	-0.09517389
5	0x3e569672	0.20955828
6	0x3da1abd4	0.07894102
7	0x3bdee911	0.006802686
8	0x3d25092b	0.040291946
9	0x3cd7865a	0.026309181
10	0x3da255dd	0.07926533
11	0xbe8bb871	-0.27289155
12	0x3c79f7ee	0.015256865
13	0x3dd911a5	0.105990686
14	0x3dfbb71d	0.122907855
15	0x3e690ff9	0.2276
16	0xbdbe547e	-0.09293459
17	0xbdd557e9	-0.10417158
18	0xbe71afa0	-0.23602152
19	0xbe86ad8b	-0.26304278
20	0x3de5bf52	0.11218132
21	0xbc01a4ed	-0.0079128565
22	0xbe1d93eb	-0.15388457
23	0xbc13cc32	-0.009020852
24	0xbc860e80	-0.016364336
25	0xbd852191	-0.06500543
26	0x3e12b78f	0.14327835
27	0xbde3e5fc	-0.111278504
28	0x3e45d783	0.19320492
29	0x3ea02b52	0.3128305
30	0xbe81bf37	-0.25341198
31	0xbdebc344	-0.11511853
32	0xbcf46538	-0.029833421
33	0xbdc8043a	-0.09766431
34	0xbd65ab4a	-0.056071557
35	0x3de884c4	0.11353448
36	0x3d9a5c17	0.07537096
37	0x3e28e68b	0.16494195
38	0xbc562945	-0.013071363
39	0xbe1d501a	-0.15362588
40	0xbe1fab3d	-0.15592666
41	0x3d99b830	0.07505834
42	0x3d8398b2	0.06425609
43	0x3c09d754	0.008413155
44	0xbd9ba827	-0.07600432
45	0xbd86cf9b	-0.06582566
46	0xbdca81f6	-0.09888069
47	0xbcc09356	-0.023507755
48	0x3de25fe6	0.110534474
49	0xbe479f8a	-0.19494453
50	0xbc98b5a4	-0.0186413
51	0x3e49afeb	0.19696014
52	0x3e500dee	0.20317814
53	0xbd5607d9	-0.052253578
54	0xbe81c80c	-0.25347936
55	0x3df6f66f	0.12058722
56	0x3d4589e8	0.04822722
57	0xbdce2efe	-0.10067557
58	0xbe277927	-0.1635481
59	0x3a892ebb	0.0010466197
60	0xbdd378cb	-0.10325774
61	0x3e41b27e	0.18915746
62	0x3deafc9e	0.11473964
63	0x3e545cec	0.20738572
64	0x3e6e495e	0.23270175
65	0xbdfd908e	-0.12381087
66	0x3e8dbd1c	0.27683342
67	0xbd5a9127	-0.053361084
68	0xbdb19291	-0.086705334
69	0xbcb9b3dd	-0.022668773
70	0xbe02381a	-0.12716714
71	0xbdffb7cc	-0.12486228
72	0x3de4115a	0.11136122
73	0x3e6a8e3c	0.2290582
74	0x3e1669e0	0.14688826
75	0xbd72574d	-0.059165288
76	0xbe19a15b	-0.15002958
77	0x3e5e11b9	0.21686448
78	0x3de19d43	0.110163234
79	0x3e825157	0.25452682
80	0x3cea2444	0.028581746
81	0x3dcf4633	0.10120811
82	0x3de90140	0.113771915
83	0x3d8105d9	0.062999435
84	0x3ce80a0a	0.0283251
85	0x3cb0d54b	0.021586081
86	0x3e4efadf	0.20212887
87	0x3e2a0271	0.16602494
88	0xbe65ce55	-0.2244199
89	0x3d7be4f2	0.061497636
90	0x3e3aaf0d	0.18230839
91	0xbe3906ce	-0.18069002
92	0x3e499777	0.19686686
93	0x3dc23929	0.09483559
94	0x3db66bb8	0.089072645
95	0xbd8a4d5c	-0.067530364
96	0x3da7d836	0.08195536
97	0xbe85b701	-0.26116183
98	0x3e214371	0.15748383
99	0x3d6b0349	0.05737618
100	0xbe60ad45	-0.21941097
101	0xbd773b52	-0.060359307
102	0x3e4bd606	0.19905862
103	0xbccb154a	-0.024790425
104	0x3d6baacd	0.057535935
105	0xbe381661	-0.17977287
106	0xbd866e32	-0.06563987
107	0xbe43476f	-0.19070219
108	0x3d804f1e	0.062650904
109	0x3e36813b	0.17822735
110	0xbe88fb33	-0.2675415
111	0x3df84010	0.12121594
112	0xbd2269c1	-0.039651636
113	0x3dc1aadd	0.09456418
114	0x3e50d47b	0.20393555
115	0xbcfdb08a	-0.03096797
116	0xbd0b9665	-0.034078974
117	0xbc9b1e88	-0.018935457
118	0xbe7acd94	-0.24492484
119	0x3e546b11	0.20743968
120	0x3e45fdff	0.19335173
121	0x3e3929d2	0.1808236
122	0x3de50597	0.11182707
123	0x3dcb6366	0.09931068
124	0x3e5683ed	0.20948763
125	0x3d49bf8d	0.049254943
126	0xbd88b364	-0.06674841
127	0x3ca2ca46	0.019871842

weight f4 [128, 16]
0	0xbe62693f	-0.2211046
1	0xbe6d1d03	-0.23155598
2	0x3d8b2452	0.06794037
3	0x3e854f88	0.2603724
4	0xbe3ccfc6	-0.18438634
5	0xbe290665	-0.16506346
6	0x3bbad07a	0.005701122
7	0xbe62cc78	-0.22148311
8	0xbdce8dbd	-0.10085628
9	0x3e014426	0.12623653
10	0xbe2737e2	-0.16329911
11	0xbe5259e7	-0.20542108
12	0xbd838f26	-0.06423788
13	0xbda6e51e	-0.081491694
14	0x3d3ef90c	0.04662423
15	0x3c736f9f	0.0148581555
16	0x3dc0dbb6	0.094169065
17	0xbd0a5d4e	-0.03378039
18	0x3e59171a	0.21200219
19	0xbe98b789	-0.29827526
20	0x3d0dcee9	0.034621153
21	0x3dc6aa9c	0.0970051
22	0x3e212d7b	0.15740006
23	0x3e67ec12	0.22648647
24	0x3e831b89	0.25606945
25	0xbe83a4b2	-0.2571159
26	0xbd94c734	-0.072645575
27	0xbea433b7	-0.32070705
28	0xbd9d589a	-0.07682915
29	0xbe16a611	-0.14711787
30	0xbdcdd978	-0.100512445
31	0xbe9e7513	-0.30948696
32	0xbe0174f5	-0.12642272
33	0x3d93518c	0.07193288
34	0x3e88795b	0.26655087
35	0x3e45d2f5	0.19318755
36	0xbd997c33	-0.07494392
37	0xbd7df7fb	-0.06200407
38	0x3e1cf557	0.15327965
39	0xbd0e66c3	-0.03476597
40	0xbe363785	-0.17794617
41	0x3dc72470	0.09723747
42	0x3e8195b9	0.25309542
43	0x3e564c47	0.20927535
44	0xbd4783b7	-0.048709597
45	0xbe2bf008	-0.16790783
46	0x3b5a6a31	0.0033327455
47	0x3cc7f5a0	0.024409115
48	0x3cd12efe	0.025535103
49	0xbdab8281	-0.08374501
50	0x3e765fa8	0.24059927
51	0xbe18d99b	-0.1492676
52	0xbc8c4e6a	-0.017127234
53	0x3e3628a1	0.17788936
54	0x3e3274b6	0.17427334
55	0xbe327482	-0.17427257
56	0xbe100727	-0.14065228
57	0x3d8adc2d	0.067802764
58	0xbbee8b50	-0.007279791
59	0xbd2af8f5	-0.04174133
60	0xbeb6c7a4	-0.3569919
61	0xbc425e15	-0.011863251
62	0x3e642c5a	0.22282544
63	0xbe696cc9	-0.22795404
64	0xbea3ac28	-0.31967282
65	0x3e76205d	0.24035783
66	0xbdb2274e	-0.08698903
67	0x3e185ba8	0.14878714
68	0xbe3a6f85	-0.18206604
69	0x3e755282	0.23957255
70	0x3e4cb735	0.19991763
71	0xbeafb905	-0.34320846
72	0x3dfc3c38	0.12316173
73	0xbdb17602	-0.08665086
74	0x3d949c17	0.07256334
75	0xbdd82065	-0.10553054
76	0xbe815a4e	-0.2526421
77	0x3de3d8a2	0.11125304
78	0xbe3c3abb	-0.18381779
79	0xbba72ad0	-0.005101539
80	0x3e18ab13	0.1490901
81	0x3c886f7d	0.016654724
82	0x3e0e40b6	0.13891873
83	0x3e516837	0.20449911
84	0xbd0e9370	-0.034808576
85	0x3db7d565	0.08976249
86	0x3d1af1ac	0.037828133
87	0x3e1d5b81	0.15366937
88	0x3ac60f62	0.0015110786
89	0x3cbfb8e1	0.023403587
90	0x3e029448	0.12751877
91	0xbe0dfb97	-0.13865505
92	0x3e2bead2	0.16788796
93	0x3dc9949c	0.09842798
94	0xbe2a055a	-0.16603604
95	0xbe253753	-0.16134386
96	0x3ec4549a	0.38345796
97	0x3e88f437	0.2674882
98	0x3cf68e3c	0.03009712
99	0x3dc131d0	0.09433329
100	0xbd8fb7bc	-0.070174664
101	0xbdff264b	-0.12458476
102	0xbe405871	-0.18783738
103	0x3e1894f7	0.14900576
104	0x3e16a110	0.14709878
105	0xbe08d5e5	-0.13362844
106	0x3dc0ba42	0.09410526
107	0xbdf19231	-0.11795462
108	0x3ec4ddcd	0.3845047
109	0xbd349564	-0.044087783
110	0xbd686830	-0.056739986
111	0x3e367de4	0.17821461
112	0xbd6610e7	-0.056168463
113	0x3d95ef10	0.07320988
114	0xbd2aff80	-0.04174757
115	0x3df8cbb3	0.121482275
116	0x3c52e713	0.012872475
117	0xbce118cb	-0.027477643
118	0xbe5e084e	-0.21682855
119	0xbc821f68	-0.015884116
120	0xbdaa58d5	-0.083177246
121	0x3e37956e	0.17928097
122	0x3ec6bbb4	0.3881508
123	0x3e9d96e7	0.30779192
124	0x3e072810	0.13198876
125	0x3d93558d	0.07194052
126	0x3de03557	0.10947674
127	0x3e8d1dac	0.275617
128	0xbe39fbfe	-0.18162534
129	0xbd6a7025	-0.057235856
130	0x3e8f9851	0.28045896
131	0xbe552812	-0.20816067
132	0xbcb4ff1a	-0.022094298
133	0xbd137d5e	-0.03600823
134	0xbdaef453	-0.08542695
135	0x3d8d2ee7	0.068937115
136	0xbe59a6aa	-0.21254984
137	0xbe80a432	-0.2512527
138	0x3d8b1081	0.06790257
139	0xbe83accb	-0.25717768
140	0xbe9a4f49	-0.30138615
141	0xbe4eee08	-0.20207989
142	0x3d40ae72	0.047041364
143	0xbd5ea4d8	-0.054356426
144	0xbdd9d4a3	-0.1063626
145	0xbdc42a94	-0.09578434
146	0xbdd006ff	-0.101575844
147	0x3cda1969	0.026623445
148	0x3e92f1a2	0.28699976
149	0xbd48263e	-0.048864596
150	0xbe6bd169	-0.23029102
151	0x3daa8ff3	0.083282374
152	0xbe394994	-0.18094474
153	0x3c9a9981	0.018872024
154	0xbd9a36be	-0.075299725
155	0xbd032dd8	-0.032026142
156	0x3dddf325	0.10837392
157	0xbe51099a	-0.20413819
158	0x3e7ea87b	0.24868958
159	0x3e5b1db1	0.21398045
160	0xbe4bcd91	-0.19902636
161	0x3e83b40b	0.257233
162	0xbd2d92c0	-0.04237628
163	0xbd5e51b6	-0.054277144
164	0xbe97d4af	-0.29654452
165	0x3e0bbd57	0.13646446
166	0x3da0afea	0.07846053
167	0xbc8e5a0f	-0.017376928
168	0xbe4d50f6	-0.20050415
169	0xbd869ec2	-0.065732494
170	0x3cd39d27	0.025831772
171	0xbbe4a71f	-0.00697793
172	0x3e7b4ffa	0.24542227
173	0x3e97181e	0.29510587
174	0x3e3e4683	0.18581586
175	0x3d6d99df	0.05800807
176	0x3dfd001a	0.12353535
177	0xbdcc7b5d	-0.09984467
178	0x3d360b69	0.044444475
179	0xbd68b4da	-0.0568131
180	0x3eb51f1d	0.353753
181	0xbd8354ee	-0.064126834
182	0xbe8ed429	-0.2789624
183	0xbbf81b2f	-0.0075716
184	0xbe27fbdc	-0.1640467
185	0x3dd2625d	0.102726676
186	0xbcff0bab	-0.031133493
187	0x3e850f39	0.25988176
188	0xbe140c45	-0.14457805
189	0xbd85c55e	-0.065317854
190	0x3e5b947c	0.21443361
191	0xbe3fbcd1	-0.18724371
192	0xbeed8c19	-0.4639595
193	0xbd1056e5	-0.03523912
194	0xbdfa825e	-0.12231897
195	0x3d7b19c3	0.061303865
196	0x3cdfd730	0.02732429
197	0x3e3c4728	0.18386519
198	0xbd5d7bae	-0.05407303
199	0xbe4d3209	-0.20038618
200	0x3cfd0923	0.030888146
201	0xbdd56f19	-0.10421581
202	0xbeaf3e65	-0.3422729
203	0xbe4c1738	-0.19930732
204	0xbe95a1b4	-0.29224932
205	0xbd083868	-0.03325692
206	0xbe44fe32	-0.19237593
207	0x3e810a0d	0.2520298
208	0x3d3d9352	0.046283074
209	0xbe481242	-0.19538215
210	0x3dea15e6	0.11429958
211	0x3e4176ee	0.18893024
212	0xbe78ddf1	-0.24303414
213	0x3e441564	0.19148785
214	0xbd79d7ee	-0.060996942
215	0x3d367883	0.044548523
216	0x3e3cfbba	0.18455401
217	0x3e0e8604	0.1391831
218	0xbe441fc5	-0.19152744
219	0x3da17c2c	0.07885012
220	0x3d7d6be2	0.061870463
221	0x3eb33813	0.3500372
222	0x3eab57eb	0.33465514
223	0xbe1c620a	-0.15271774
224	0xbdc2ff32	-0.09521331
225	0xbe2efc86	-0.17088518
226	0xbd13ac34	-0.036052898
227	0xbebcd8d5	-0.3688418
228	0x3de1455f	0.109995596
229	0x3e908ce2	0.28232485
230	0x3e8a4b01	0.27010348
231	0xbe72f1cc	-0.2372505
232	0xbe44748c	-0.19185084
233	0xbe82ebb4	-0.25570452
234	0xbe7cd7d7	-0.24691711
235	0xba8ff79b	-0.0010983826
236	0xbe67999c	-0.22617191
237	0xbe6bae93	-0.23015814
238	0xbe888ef8	-0.26671576
239	0xbe68f56d	-0.22749873
240	0xbebceef4	-0.36901057
241	0xbdeb8c17	-0.115013294
242	0x3e37f599	0.17964782
243	0xbe66e329	-0.22547592
244	0xbd1872de	-0.03721892
245	0x3e202db9	0.15642442
246	0x3ebcf6d0	0.36907053
247	0xbe9ad40c	-0.30239904
248	0xbdf194b2	-0.117959395
249	0xbda645fd	-0.08118818
250	0x3cd285ce	0.025698569
251	0xbe54d1da	-0.20783177
252	0x3e0bf1c2	0.13666442
253	0x3d14bd81	0.036313538
254	0x3c8de57a	0.017321337
255	0x3dd38d7a	0.10329719

weight f4 [128, 16]
0	0x3e350403	0.17677312
1	0xbdb9622c	-0.09051928
2	0xbe77c66a	-0.24196783
3	0x3b2b26fe	0.002611577
4	0xbe0656fe	-0.13119122
5	0xbe8d6521	-0.27616218
6	0xbe321033	-0.17388992
7	0xbdfef76f	-0.12449538
8	0xbe907006	-0.28210467
9	0x3d006d6b	0.03135435
10	0x3e14f90b	0.14548127
11	0x3d901bda	0.07036562
12	0x3e4ba21d	0.1988606
13	0xbe64877f	-0.22317313
14	0xb98462d5	-0.00025250638
15	0xbe975f8a	-0.29565078
16	0xbe103637	-0.14083181
17	0xbe287e43	-0.16454415
18	0x3b075568	0.0020650271
19	0x3e525548	0.20540345
20	0x3954d61b	0.00020297656
21	0xbda144cf	-0.07874452
22	0xbe88a5fe	-0.26689142
23	0x3d7bdd21	0.06149018
24	0xbce0daa9	-0.027448015
25	0x3c949537	0.018137557
26	0x3da5b3aa	0.08090909
27	0x3e432314	0.1905635
28	0x3d6158a1	0.055016164
29	0x3e2e11de	0.16999003
30	0x3e192388	0.1495496
31	0x3d051f17	0.032500353
32	0x3dd4db53	0.10393395
33	0x3dd516f6	0.1040477
34	0xbe2a2eae	-0.1661937
35	0xbe6e0477	-0.2324389
36	0xbe6b3ed0	-0.2297318
37	0x3e04443c	0.12916654
38	0xbe220886	-0.15823564
39	0xbe0a2c9c	-0.1349358
40	0xbe4e47d7	-0.20144592
41	0xbe671ec9	-0.22570337
42	0xbe3b7fdc	-0.18310493
43	0xbcb4d9dd	-0.022076542
44	0x3e0ed689	0.13949026
45	0xbd2272f5	-0.039660413
46	0xbcfaf9db	-0.030636718
47	0xbe6b32ab	-0.22968547
48	0xbe1064d9	-0.1410097
49	0x3e41d6fc	0.18929666
50	0x3deeaceb	0.11654075
51	0xbcc064cb	-0.023485562
52	0xbe2ac9ca	-0.16678539
53	0x3e8fa1e8	0.28053212
54	0xbe60b923	-0.21945624
55	0xbe617765	-0.22018202
56	0xbdb14b83	-0.08656981
57	0x3d920669	0.07130129
58	0xbe4807df	-0.19534253
59	0xbe2efcf6	-0.17088684
60	0x3e5e0ef2	0.21685389
61	0x3cc0881c	0.023502402
62	0x3d7f3bd9	0.062312935
63	0x3c5026ee	0.012704594
64	0x3e4fe2fd	0.20301433
65	0x3e16319f	0.14667366
66	0x3e18cf0a	0.14922729
67	0xbdc85596	-0.09781949
68	0xbdc0dca7	-0.09417086
69	0xbdd50234	-0.10400811
70	0xbdeee47d	-0.116646744
71	0x3e8961fd	0.26832572
72	0x3ca65678	0.020304903
73	0x3e3cefb4	0.18450814
74	0xbd6f4d0f	-0.0584231
75	0xbe7ddf2a	-0.24792162
76	0xbe6df5b9	-0.23238267
77	0x3df54b1a	0.11977215
78	0xbdbdc567	-0.09266167
79	0xbd9b2038	-0.075745046
80	0xbe16cfac	-0.14727658
81	0x3df89397	0.121375255
82	0xbe23ea0d	-0.16007252
83	0xbe345a03	-0.17612462
84	0xbe900473	-0.28128394
85	0xbde58a33	-0.11208
86	0xbd0acd28	-0.03388706
87	0x3e180f98	0.14849699
88	0x3da23ea3	0.07922103
89	0xbc17a1aa	-0.009254852
90	0x3cff2064	0.031143375
91	0x3e45fc6a	0.1933457
92	0xbdfc59c3	-0.12321808
93	0x3dc6ba22	0.09703471
94	0x3daca180	0.08429241
95	0x3e7081fc	0.23487085
96	0x3e2f72ed	0.17133684
97	0x3d2115cc	0.039327428
98	0xbd8e5c66	-0.06951217
99	0xbe609a48	-0.21933854
100	0x3e098d03	0.13432698
101	0xbe00555f	-0.12532566
102	0x3dc2a362	0.09503819
103	0x3e806ef9	0.25084665
104	0x3e1639c3	0.14670472
105	0x3d345500	0.044026375
106	0xbd4ce02e	-0.050018482
107	0xbe30f0c6	-0.17279348
108	0xbe5a0913	-0.21292524
109	0x3e73ac4e	0.23796198
110	0x3e85243e	0.26004213
111	0xbcedb6b6	-0.029017787
112	0xbe2e95a7	-0.17049275
113	0xbe1c7a13	-0.15280943
114	0x3dfcd4b5	0.12345258
115	0xbdf0a2ac	-0.11749777
116	0x3d31653f	0.043309446
117	0x3d6154bc	0.05501245
118	0x3e099a91	0.13437869
119	0x3e609829	0.21933044
120	0x3de8363c	0.113384694
121	0xbe2e5175	-0.17023261
122	0xbe2aeb0e	-0.16691229
123	0xbd231462	-0.03981436
124	0x3e5b63cb	0.21424787
125	0xbdc72596	-0.09723966
126	0xbe29c3dd	-0.16578622
127	0xbdeed300	-0.11661339
128	0xbe5ffdfc	-0.21874231
129	0x3dd50721	0.1040175
130	0x3d1fbd44	0.038998857
131	0x3d106122	0.035248883
132	0x3e66757c	0.22505754
133	0x3d460d9a	0.048352815
134	0xbe82fa2a	-0.25581485
135	0xbd9d6da3	-0.07686927
136	0xbdc66350	-0.09686911
137	0xbd0a3a83	-0.033747207
138	0xbe405db8	-0.18785751
139	0xbe0ce920	-0.13760805
140	0x3e6d6891	0.2318442
141	0xba916fff	-0.0011096
142	0x3c66e495	0.014092584
143	0x3e587a72	0.21140459
144	0xbcca144a	-0.024667878
145	0x3e883a32	0.266069
146	0x3e1dbdf8	0.15404499
147	0xbe53806f	-0.20654462
148	0x3de4fdba	0.11181207
149	0x3dca0172	0.09863557
150	0x3de8be1a	0.11364384
151	0x3c3bd278	0.011463754
152	0x3e196de6	0.14983329
153	0xbdccc55b	-0.0999858
154	0xbd0415b3	-0.032247256
155	0x3d6608fe	0.05616092
156	0xbd484556	-0.04889425
157	0x3da0d5e7	0.07853299
158	0xbe03da47	-0.12876235
159	0xba445495	-0.00074894103
160	0x3d59daea	0.05318729
161	0x3e7a2f8b	0.24432199
162	0xbe1de839	-0.15420617
163	0xbc144236	-0.009048989
164	0xbe5041be	-0.20337579
165	0xbdc70c5c	-0.09719154
166	0x3e67166f	0.22567151
167	0x3e520c0e	0.20512411
168	0x3e76d963	0.24106364
169	0xbdc64095	-0.09680287
170	0x3e32ceb6	0.17461666
171	0xbe4feb22	-0.2030454
172	0xbe396328	-0.18104231
173	0xbe288ae3	-0.16459231
174	0xbe32cf2f	-0.17461847
175	0xbe1f9761	-0.1558509
176	0xbe348bee	-0.17631504
177	0x3c9767b6	0.01848207
178	0x3c9af9f1	0.01891801
179	0x3e7de56b	0.24794547
180	0xbe1a5db1	-0.15074803
181	0xbe54047b	-0.20704834
182	0x3e79ef03	0.24407582
183	0x3e311e17	0.17296635
184	0xbe71f2f6	-0.23627838
185	0x3d9b2e4a	0.07577188
186	0x3e0c81d4	0.137214
187	0xbe7ea641	-0.24868108
188	0x3e46fb3a	0.19431773
189	0xbe247aa7	-0.16062413
190	0x3d8fd74e	0.07023488
191	0xbc9bce5a	-0.019019295
192	0xbb841f09	-0.00403202
193	0x3e7e977a	0.24862471
194	0x3e8eca4e	0.2788872
195	0x3ddd81c9	0.1081577
196	0x3e788f35	0.24273379
197	0x3e370584	0.17873198
198	0x3e11b9f8	0.14231098
199	0xbcf19c13	-0.029493367
200	0xbdb7558e	-0.08951865
201	0x3d88b12c	0.06674418
202	0xbca322df	-0.019914089
203	0xbe6a51fd	-0.22882839
204	0x3e719a7e	0.2359409
205	0xbd94408f	-0.07238876
206	0x3adab0eb	0.0016684806
207	0xbe1c66cc	-0.15273589
208	0x389c7818	7.461029e-05
209	0x3da1af4f	0.078947656
210	0xbb4d02ba	-0.0031282143
211	0x3e4e3a8b	0.2013952
212	0x3e69695f	0.22794102
213	0xbe3a9c22	-0.18223622
214	0x3d898a38	0.06715816
215	0xbe5bef88	-0.21478093
216	0xbe05c549	-0.1306354
217	0x3e57ad71	0.21062256
218	0xbe29faf0	-0.16599631
219	0x3d96f00f	0.07370006
220	0xbc9b1959	-0.018932985
221	0x3e9f6176	0.31129044
222	0xbe7b828e	-0.24561521
223	0x3e010a53	0.12601595
224	0xbe7e5cdf	-0.24840115
225	0x3dcab525	0.09897832
226	0x3e2541e0	0.1613841
227	0xbe843bbd	-0.25826827
228	0x3ccbe986	0.024891626
229	0xbd840fe6	-0.06448345
230	0x3e3b4b67	0.18290482
231	0xbe7efba1	-0.24900676
232	0xbc270d0e	-0.010195984
233	0x3e7747c8	0.24148476
234	0xbd8f7e1f	-0.070064776
235	0xbbeef406	-0.0072922735
236	0xbdc450e5	-0.09585742
237	0xbda6ae1b	-0.08138677
238	0x3c249c59	0.010047042
239	0x3d2c2978	0.042031735
240	0x3e4e67d9	0.20156802
241	0x3e1f54d0	0.15559697
242	0x3e8357fd	0.25653067
243	0x3e05d4c1	0.1306944
244	0xbe4c7c29	-0.19969238
245	0x3cd8ec51	0.026479872
246	0xbd1a53ec	-0.03767769
247	0xbdbbd6ec	-0.091718525
248	0xbd8242b9	-0.063603826
249	0x3d49dcdf	0.049282905
250	0xbe8b51cd	-0.27210847
251	0x3e6e017f	0.23242758
252	0x3c4f2330	0.012642667
253	0xbe206ea7	-0.1566721
254	0x3e124886	0.14285478
255	0xbd0edc82	-0.03487826

bias f4 [128]
0	0xbcb57772	-0.022151683
1	0xbce03054	-0.027366795
2	0xbe3bda03	-0.18344884
3	0xbe001b15	-0.12510331
4	0xbe227b2a	-0.15867296
5	0x3e129c26	0.14317378
6	0x3e20e28e	0.15711424
7	0x3e59b701	0.21261217
8	0xbb8ca187	-0.0042917165
9	0x3e36bc86	0.17845353
10	0x3e66fc2b	0.22557132
11	0x3e4972ef	0.1967275
12	0xbe683dd3	-0.22679834
13	0x3d6ed0e0	0.058304667
14	0xbe1097f1	-0.14120461
15	0xbe638ea2	-0.22222379
16	0x3e05c80e	0.13064596
17	0x3e60ade0	0.21941328
18	0xbde5aaa6	-0.11214189
19	0xbe274542	-0.16335014
20	0xbd45b960	-0.04827249
21	0x3d9920e3	0.07476976
22	0x3d5a2d97	0.053266134
23	0xbd153f4e	-0.036437325
24	0xbd57aa0a	-0.052652396
25	0xbe63f324	-0.2226072
26	0x3b0fed47	0.0021961497
27	0xbd892fa7	-0.06698542
28	0xbdbde940	-0.092730045
29	0xbe372cc7	-0.17888175
30	0x3e4bf589	0.19917883
31	0xbd4e8ae7	-0.050425436
32	0x3d05a8fa	0.03263185
33	0xbe68cb9f	-0.22733925
34	0x3d632c84	0.055462375
35	0xbe6917f5	-0.22763045
36	0x3d1dcbeb	0.03852455
37	0xbe30bb03	-0.1725884
38	0xbce5e474	-0.028063037
39	0x3dc973d1	0.09836543
40	0xbd915a8f	-0.07097351
41	0xbe4d9f61	-0.2008033
42	0x3e5e2245	0.2169276
43	0xbe27bc36	-0.1638039
44	0xbaabb3f5	-0.0013099896
45	0x3dd2dabc	0.102956265
46	0xbde0630b	-0.10956391
47	0x3bfc7cb9	0.007705298
48	0xbe4c1ad8	-0.19932115
49	0xbe82fae5	-0.25582042
50	0xbe041811	-0.12899806
51	0xbe9841b6	-0.29737633
52	0xbe48a859	-0.1959547
53	0xbdc77f89	-0.09741122
54	0x3d22d359	0.039752338
55	0x3dffc2e5	0.12488345
56	0xbe3cff88	-0.18456852
57	0x3e7ef41b	0.24897806
58	0x3cbdea11	0.0231829
59	0xbe64896e	-0.2231805
60	0xbe169df3	-0.1470869
61	0xbd258ec8	-0.04041937
62	0x3e3c1e09	0.18370833
63	0x3e794249	0.24341692
64	0xbdeaec45	-0.11470846
65	0x3e1a0581	0.15041162
66	0xbe7ce58d	-0.24696942
67	0x3e4b98fe	0.1988258
68	0x3e2770ea	0.16351667
69	0x3e8d21ad	0.27564755
70	0xbe1153be	-0.14192101
71	0xbdfc9f03	-0.123350166
72	0x3e1b7f2c	0.15185231
73	0x3dcf3a5e	0.101185545
74	0x3de149c4	0.11000398
75	0x3d72a6e4	0.05924119
76	0x3e12539f	0.14289711
77	0xbe4e7f5b	-0.2016577
78	0x3dd26876	0.102738306
79	0xbbba4108	-0.005684022
80	0xbe88e218	-0.26734996
81	0xbd90751c	-0.07053587
82	0xbe58e88a	-0.21182457
83	0x3e16ef88	0.14739811
84	0x3e9792f6	0.2960431
85	0xbe349b04	-0.17637259
86	0xbe531650	-0.2061398
87	0x3e4ce137	0.20007788
88	0x3e451e25	0.1924978
89	0x3e82e3f1	0.2556453
90	0xbd317d53	-0.04333241
91	0x3e36736f	0.17817472
92	0xbd620ab6	-0.055185996
93	0x3d937344	0.071997195
94	0x3e7a4701	0.24441148
95	0xbdaca191	-0.08429254
96	0xbe3728db	-0.17886679
97	0x3db4fad8	0.08836907
98	0xbd63aa24	-0.05558218
99	0xbccb1b7a	-0.024793375
100	0x3e7509cb	0.23929517
101	0xbe20444c	-0.15651053
102	0xbe80b515	-0.25138155
103	0xbe2fae0c	-0.17156237
104	0xbe994ac4	-0.29939854
105	0x3e84fd32	0.25974423
106	0xbdf6c685	-0.12049583
107	0xbe609c44	-0.2193461
108	0xbe1cdd75	-0.15318854
109	0xbc359160	-0.011082023
110	0x3d3d6220	0.046236157
111	0x3dd50ff9	0.10403437
112	0x3dc1619c	0.09442446
113	0xbdb912c9	-0.09036786
114	0xbe6193d8	-0.22029054
115	0x3d13de37	0.036100592
116	0xbe586a62	-0.21134332
117	0xbce23774	-0.027614333
118	0x3dcef9dd	0.101062514
119	0x3e6c02a7	0.23047887
120	0xbb7adee8	-0.0038279835
121	0x3d950268	0.072758496
122	0x3eaa6a34	0.33284152
123	0x3d4fce3e	0.050733797
124	0x3e715796	0.23568568
125	0x3e495af6	0.19663605
126	0x3d30a12a	0.043122448
127	0x39cf3eef	0.00039529006

weight f4 [128, 16]
0	0x3e22bef8	0.15893161
1	0x3da60ae6	0.081075475
2	0xbe527d95	-0.20555718
3	0xbe235d28	-0.15953505
4	0xbd12a2e2	-0.03579987
5	0xbe013f55	-0.12621816
6	0x3e21cc0f	0.15800498
7	0xbe22f32a	-0.15913072
8	0xbdd43fb2	-0.103637114
9	0x3e159d8e	0.14610884
10	0xbe656e17	-0.22405277
11	0x3e1a85a8	0.15090048
12	0x3c047498	0.008084439
13	0x3de31f84	0.110899955
14	0x3e5bf335	0.21479495
15	0x3db632ca	0.08896406
16	0xbbbcd2ec	-0.0057624485
17	0xbe6c9a06	-0.2310563
18	0xbe70b3db	-0.2350611
19	0x3d9f39c7	0.07774692
20	0xbcafc5a2	-0.021456543
21	0xbe566adb	-0.209392
22	0xbdfbf911	-0.12303365
23	0x3e4912e7	0.19636117
24	0xbe3c6249	-0.18396868
25	0xbd4a755b	-0.049428325
26	0xbe690bd4	-0.22758418
27	0x3e671cc8	0.22569573
28	0xbe4e2a23	-0.20133261
29	0xbceab193	-0.028649127
30	0x3e1b5baa	0.15171686
31	0xbe483c5d	-0.19554277
32	0xbe2f8e14	-0.17144042
33	0xbd459ee9	-0.04824725
34	0xbe42a41f	-0.1900792
35	0xbd74100f	-0.059585627
36	0x3debc005	0.11511234
37	0xbd5fb1e4	-0.05461301
38	0xbe6d3e66	-0.23168334
39	0x3e4def8d	0.20110913
40	0xbe58484a	-0.21121326
41	0x3c53ced7	0.012927732
42	0xbd383c3a	-0.04497931
43	0xbe86e26f	-0.2634463
44	0x3e445b61	0.19175483
45	0x3e44175c	0.19149536
46	0xbe441ec8	-0.19152367
47	0x3e13073a	0.14358225
48	0xbe022085	-0.12707718
49	0x3da364dd	0.079782225
50	0xbdbb2b1e	-0.09139083
51	0x3e940653	0.28911075
52	0xbe137b96	-0.14402613
53	0x3e7ecc35	0.24882586
54	0x3e1402a2	0.1445413
55	0xbdc68c67	-0.09694748
56	0xbdddc33d	-0.10828254
57	0x3e2e332e	0.17011711
58	0xbe51af71	-0.20477082
59	0xbdf7045f	-0.120613806
60	0x3dbe7516	0.09299676
61	0x3e0d8eaf	0.1382396
62	0xbe7ca312	-0.24671581
63	0x3d6dc1e3	0.058046233
64	0xbe6571ee	-0.22406742
65	0xbdd4f368	-0.103979886
66	0x3e1afd51	0.15135695
67	0xbe3575e6	-0.17720756
68	0xbdc6da5e	-0.09709619
69	0xbd2eb28b	-0.04265074
70	0x3e22b2ad	0.15888472
71	0xbb736d18	-0.0037143882
72	0x3e01c20e	0.12671682
73	0x3e82b226	0.2552654
74	0xbe73362c	-0.23751134
75	0xbcd1ddbe	-0.02561843
76	0xbe49bdd1	-0.19701315
77	0x3da48d75	0.08034793
78	0xbe1d012b	-0.15332477
79	0xbe9303b2	-0.28713757
80	0xbe7c2163	-0.24622111
81	0xbe87f9a2	-0.26557642
82	0xbe108098	-0.14111555
83	0x3d93deb2	0.0722021
84	0xbe02838c	-0.12745494
85	0xbe0d0da6	-0.13774738
86	0x3e1b0eca	0.1514236
87	0xbe18974f	-0.1490147
88	0x3c07da91	0.008291856
89	0x3dacb2bd	0.08432529
90	0xbe137edd	-0.14403863
91	0x3e766813	0.24063139
92	0x3dd519c5	0.10405306
93	0xbe182bc9	-0.14860453
94	0xbe0ffac9	-0.1406051
95	0xbe6fbc97	-0.23411785
96	0x3e2219b5	0.15830119
97	0x3e76cdde	0.2410197
98	0xbce99327	-0.02851255
99	0x3e43405b	0.19067518
100	0xbda674db	-0.08127757
101	0xbcc292d9	-0.023751663
102	0xbe09f85a	-0.13473645
103	0x3e554abf	0.20829295
104	0x3e5d5797	0.21615444
105	0xbdd9a3ad	-0.10626922
106	0xbd2fb57b	-0.042897683
107	0xbdc494e8	-0.09598714
108	0xbe3425ac	-0.17592496
109	0x3e8efb13	0.2792593
110	0x3d9f4714	0.07777229
111	0x3c9937a4	0.01870329
112	0xbd0eec30	-0.034893215
113	0x3e16942f	0.14704965
114	0x3e1700f0	0.14746451
115	0xbd891b10	-0.06694615
116	0x3e9222c0	0.28542137
117	0xbde914dc	-0.11380932
118	0x3cae387c	0.021267168
119	0xbe64beb8	-0.22338378
120	0x3e10218d	0.14075299
121	0xbe3f770c	-0.18697757
122	0xbe13c07a	-0.14428893
123	0x3e4c6bcb	0.19962995
124	0x3e84f210	0.2596593
125	0xbe65a254	-0.22425205
126	0xbdb7d20c	-0.0897561
127	0x3dc19718	0.09452647
128	0xbd341075	-0.043961007
129	0xbe0b7caf	-0.13621782
130	0x3e73963b	0.23787777
131	0x3ceba6da	0.028766084
132	0x3d6447b4	0.055732444
133	0x39ff0a8a	0.00048645242
134	0x3e42695f	0.18985508
135	0xbd2c9192	-0.042131014
136	0x3e1b8987	0.15189181
137	0x3e6ab8c1	0.2292204
138	0x3e5b44ab	0.21412914
139	0x3b18af81	0.0023297968
140	0x3bc06da2	0.0058724442
141	0x3e7f5cd7	0.2493776
142	0x3cc466d1	0.023974808
143	0xbddb5582	-0.10709669
144	0x3d82ad0f	0.063806646
145	0xbe77bea7	-0.24193822
146	0x3e956ffd	0.29187003
147	0x3e5c062c	0.2148673
148	0xbdcb82b1	-0.09937037
149	0xbd77f904	-0.060540214
150	0xbe33d45b	-0.17561476
151	0xbd3b3114	-0.0457011
152	0x3e35b7fe	0.17745969
153	0x3e3beb21	0.18351413
154	0xbdd996c8	-0.10624462
155	0x3e42b045	0.19012554
156	0x3dec1ef4	0.11529341
157	0x3d2a0cc8	0.041516095
158	0xbdf2e0e8	-0.11859304
159	0xbe1a1dd2	-0.15050438
160	0xbe0a91bc	-0.13532156
161	0xbdb74881	-0.08949376
162	0x3e386ff6	0.1801146
163	0x3e327a79	0.17429532
164	0x3e55a6b0	0.20864367
165	0xbe12d2df	-0.14338253
166	0x3dbdbe6b	0.09264835
167	0xbdb8d094	-0.09024158
168	0x3d3f08b4	0.04663916
169	0x3e463119	0.19354667
170	0xbe5d585e	-0.2161574
171	0x3da1adcd	0.07894478
172	0x3e612041	0.2198496
173	0x3cc90070	0.024536341
174	0xbe31884b	-0.17337148
175	0xbc044e46	-0.0080753025
176	0xbe8082a5	-0.25099674
177	0x3e66620b	0.22498338
178	0x3e7f27b7	0.24917494
179	0x3dfdf5e4	0.124004155
180	0xbe3da919	-0.18521537
181	0x3d82cd4e	0.06386815
182	0xbcc76b41	-0.024343135
183	0x3e72bf29	0.23705734
184	0xbc4fe094	-0.012687821
185	0x3dbfe427	0.093696885
186	0x3cc44f18	0.023963496
187	0xbe387263	-0.18012385
188	0x3d3a8eb0	0.045546234
189	0xbe3550e7	-0.17706643
190	0x3c96dc6a	0.018415648
191	0xbe155c8c	-0.14586085
192	0xbdd7c7c6	-0.10536151
193	0xbd9f7cf7	-0.07787507
194	0x3e4f41cc	0.20239943
195	0xbdafd46a	-0.08585437
196	0xbdec6a02	-0.11543657
197	0x3e104611	0.14089228
198	0xbe6ff9dd	-0.23435159
199	0x3e2338a5	0.15939577
200	0xbe2770de	-0.16351649
201	0xbe21b40f	-0.15791343
202	0xbd3c13af	-0.04591721
203	0x3e46765e	0.19381091
204	0xbd4a2245	-0.04934909
205	0xbe6b710b	-0.22992341
206	0xbdb6ecdf	-0.08931898
207	0xbe080177	-0.13281809
208	0x3cbc4dc8	0.022986308
209	0x3e275808	0.16342175
210	0xbdcfeef3	-0.10152998
211	0x3cb21174	0.021736838
212	0x3da6e681	0.08149434
213	0x3bea657d	0.0071532116
214	0x3d2c9918	0.04213819
215	0x3e5fb987	0.21848117
216	0x3e2d602b	0.16931216
217	0x3e3d4756	0.18484244
218	0x3d69a16d	0.057038713
219	0x3dc76e36	0.09737818
220	0x3e05d27e	0.13068578
221	0x3d04e0df	0.032441016
222	0x3e143ce0	0.14476347
223	0xbe7b8d47	-0.24565612
224	0x3e6dddb5	0.23229106
225	0xbd05b938	-0.03264734
226	0xbc775baa	-0.015097538
227	0xbe831a84	-0.25606167
228	0xbda2a984	-0.07942489
229	0x3e5b54d8	0.21419084
230	0x3d859198	0.065219104
231	0x3e0d4981	0.13797571
232	0x3e113f20	0.14184237
233	0x3dcc8a1e	0.09987281
234	0x3c7602bd	0.015015301
235	0x3db8178c	0.08988866
236	0x3e21295d	0.15738435
237	0xbd89f801	-0.06736756
238	0xbd91ab5c	-0.07112762
239	0x3e32cce3	0.1746097
240	0x3d958d5e	0.07302354
241	0x3bec0ba6	0.007203537
242	0x3ddf22a4	0.10895279
243	0xbe6a4771	-0.22878815
244	0xbdb4e8f6	-0.08833496
245	0xbb7ecd67	-0.0038879754
246	0xbe84b789	-0.25921276
247	0x3e86c7af	0.26324221
248	0x3d1eae76	0.038740598
249	0x3e5fee12	0.2186816
250	0x3e7a260f	0.2442858
251	0x3c1d20e6	0.009590363
252	0x3d113200	0.035448074
253	0x3e2adbcc	0.16685408
254	0xbe638374	-0.22218114
255	0x3c6ef470	0.014584646

weight f4 [128, 16]
0	0xbd246c60	-0.040142417
1	0xbe255301	-0.16144945
2	0xbdc3996f	-0.095507495
3	0x3e71e134	0.23621064
4	0xbe3659c7	-0.17807685
5	0x3e28a96a	0.16470876
6	0x3e9080e5	0.2822334
7	0x3d260f09	0.040541682
8	0x3e82cbee	0.2554621
9	0x3e380d33	0.17973785
10	0x3dfd68da	0.123735145
11	0xbe9050a3	-0.2818652
12	0xbe04c40f	-0.12965415
13	0x3e81a51f	0.2532129
14	0xbe0a505f	-0.13507222
15	0x3d95fe0e	0.07323848
16	0xbe6bbf45	-0.23022182
17	0xbdd0368a	-0.101666525
18	0x3e147522	0.14497808
19	0xbe4c3cff	-0.19945143
20	0xbe4d08f6	-0.2002295
21	0x3d94b396	0.07260816
22	0x3e37bd67	0.17943345
23	0xbe6e80fd	-0.23291393
24	0x3dfafbff	0.12255096
25	0x3e203c2c	0.15647954
26	0x3e5ed9a6	0.21762714
27	0x3d5a8306	0.05334761
28	0xbe0278ec	-0.1274144
29	0xbb719ec0	-0.0036868304
30	0x3dde410a	0.10852249
31	0xbe7bf228	-0.24604094
32	0xbe860072	-0.26172215
33	0xbd8c3ebb	-0.068479024
34	0xbdd5e363	-0.10443761
35	0xbe901530	-0.28141165
36	0xbc9c9132	-0.019112203
37	0x3d0d9957	0.034570064
38	0x3e072265	0.13196714
39	0x3d84f4d5	0.064920105
40	0x3e3c652f	0.18397973
41	0xbe78dc87	-0.24302875
42	0xbe10a792	-0.14126423
43	0xbd080805	-0.033210773
44	0x3e43d512	0.19124249
45	0x3df9c8d3	0.12196507
46	0x3e458965	0.19290693
47	0xbe663595	-0.22481377
48	0x3e026c02	0.12736514
49	0xbcd0ccf3	-0.025488352
50	0xbe090570	-0.1338098
51	0x3e329e2f	0.17443155
52	0x3cdf716c	0.027275763
53	0xbd25bb4d	-0.040461827
54	0xbe4a7971	-0.19772889
55	0x3db06234	0.08612481
56	0x3e0a9c05	0.13536079
57	0x3ea09fd7	0.31371948
58	0x3d8a6ee0	0.06759429
59	0x3dd0fe67	0.102047734
60	0x3e285d21	0.16441776
61	0xbe248a24	-0.16068321
62	0x3dddfe38	0.10839504
63	0x3e85c3f9	0.26126078
64	0x3e6daddb	0.23210852
65	0xbe922ee1	-0.2855139
66	0x3e418e00	0.18901825
67	0xbd0c6156	-0.034272514
68	0x3e7ea728	0.24868453
69	0xbc987116	-0.018608611
70	0xbe5bdc12	-0.21470669
71	0xbd8a45db	-0.06751605
72	0x3e1b9043	0.1519175
73	0xbe116787	-0.14199649
74	0xbdf54674	-0.119763285
75	0xba6a23ab	-0.00089317065
76	0x3e49d806	0.19711313
77	0x3d98d8ce	0.07463227
78	0xbe8499d7	-0.2589862
79	0xbe61c57d	-0.22047992
80	0xbe72cdc1	-0.23711301
81	0xbe1b294f	-0.15152477
82	0xbdb8ce24	-0.09023693
83	0xbd88ceb6	-0.06680052
84	0xbe8ba335	-0.27272955
85	0xbd51a93c	-0.051186785
86	0xbe5ff254	-0.21869785
87	0xbdd1b3f6	-0.10239403
88	0x3cdeaa30	0.027180761
89	0xbe95e9c8	-0.29279923
90	0xbd25b8c3	-0.040459406
91	0x3df7a6bc	0.12092349
92	0x3e7ed005	0.2488404
93	0x3e4cfc6f	0.20018171
94	0x3e276d03	0.16350178
95	0xbd1fe4f6	-0.039036714
96	0xbe78c8a5	-0.2429529
97	0xbd7f0b53	-0.06226666
98	0x3e1e8641	0.15480901
99	0x3de71085	0.11282448
100	0x3e56f12b	0.20990436
101	0x3e7e1058	0.24810922
102	0xbe1ba247	-0.15198623
103	0x3e885c63	0.26632985
104	0x3da8fa5e	0.08250879
105	0x3de7cc4a	0.11318262
106	0x3e42cd7c	0.19023699
107	0xbe76d96b	-0.24106376
108	0xbe0c7a03	-0.13718419
109	0x3e3e4f8a	0.18585029
110	0x3dc6e8b4	0.09712353
111	0xbd1a06b2	-0.03760404
112	0x3c767f4d	0.015044999
113	0xbd00dc44	-0.03146006
114	0x3ea588da	0.32330972
115	0x3e61fe78	0.22069728
116	0x3cb78ea7	0.02240689
117	0x3d7c4440	0.061588526
118	0xbca7d9f5	-0.020489672
119	0xbe947afc	-0.2900008
120	0x3e60cb3e	0.2195253
121	0xbd555178	-0.052079648
122	0xbe317cfc	-0.17332834
123	0x3e5c62f5	0.21522124
124	0xbd58cda8	-0.052930504
125	0xbe02e190	-0.12781358
126	0x3ea9f733	0.3319641
127	0xbe2bba47	-0.16770278
128	0x3dd41f7c	0.10357568
129	0x3e55daf3	0.20884304
130	0xbda6d6f3	-0.08146467
131	0x3d09d255	0.033647854
132	0xbe2222ad	-0.1583354
133	0xbd05f725	-0.0327064
134	0x3cdf4a2e	0.027257051
135	0xbd0049bc	-0.03132032
136	0x3dff7bfd	0.12474821
137	0xbe156a6b	-0.14591376
138	0xbe20b70b	-0.15694825
139	0xbe4d436f	-0.20045255
140	0xbe78cce3	-0.24296908
141	0x3e212642	0.1573725
142	0xbe4bccf4	-0.19902402
143	0xbe55de71	-0.20885636
144	0xbe09c3d7	-0.13453613
145	0xbe0ac420	-0.13551378
146	0xbe8eb6ff	-0.2787399
147	0xbcbedace	-0.023297694
148	0x3dda54f5	0.106607355
149	0x3e4bac99	0.1989006
150	0xbe8fc407	-0.28079244
151	0xbd9d936a	-0.076941326
152	0x3e762714	0.24038345
153	0xbe5ead1a	-0.2174572
154	0xbd9076b8	-0.07053894
155	0x3dd03595	0.1016647
156	0xbe38b6d8	-0.180385
157	0xbe49de4b	-0.19713704
158	0x3e3664d5	0.17811902
159	0x3c311260	0.010807604
160	0xbd646156	-0.05575689
161	0x3e0e531c	0.13898891
162	0xbcfb981c	-0.03071218
163	0xbd5b1117	-0.053483095
164	0xbe4c399f	-0.19943856
165	0xbe0ae107	-0.13562404
166	0x3c2b2e5c	0.010448065
167	0x3d8f93bb	0.07010599
168	0x3e3fa6f2	0.18716028
169	0x3dba4b90	0.09096444
170	0xbc3e9069	-0.01163111
171	0x3e53fb67	0.20701371
172	0x3e3223f8	0.17396533
173	0xbd4bcc9b	-0.049755674
174	0x3d040285	0.032228965
175	0x3d3b40db	0.045716148
176	0x3e2c3416	0.16816744
177	0xbd74efbe	-0.05979895
178	0x3e0171a8	0.12641013
179	0x3e872605	0.26396194
180	0xbe54848c	-0.20753688
181	0x3e4bd31f	0.19904755
182	0xbc7e5358	-0.0155228
183	0x3ebb4c8a	0.36581832
184	0x3e3bd3ed	0.18342562
185	0x3d8380ae	0.06421028
186	0x3d545b15	0.051844675
187	0x3d50aed7	0.05094799
188	0x3e53df39	0.20690621
189	0x3de15b63	0.11003759
190	0x3e2bc2e7	0.16773568
191	0xbe9bcdf4	-0.30430567
192	0x3e0c54a0	0.13704157
193	0xbd5c4ae0	-0.053782344
194	0x3de93ae5	0.11388186
195	0xbe06c511	-0.13161112
196	0x3e68580a	0.22689834
197	0xbe986710	-0.2976613
198	0xbdd02672	-0.10163583
199	0x3d7d178b	0.06179003
200	0x3e7a043a	0.24415675
201	0xbe7666d6	-0.24062666
202	0x3e043aca	0.12913051
203	0xbe94f518	-0.29093242
204	0xbe1dd6eb	-0.15414016
205	0xbe7a7f5c	-0.24462646
206	0xbe98a92e	-0.29816574
207	0x3d943873	0.07237329
208	0x3e8a7e44	0.27049458
209	0x3d6a5eae	0.0572192
210	0x3e733e12	0.23754147
211	0x3eaa717d	0.3328971
212	0x3e616efe	0.22014996
213	0x3e8f76d3	0.28020343
214	0xbe79b8ee	-0.24386951
215	0xbcb8c5dc	-0.022555284
216	0xbe7ca1b7	-0.24671064
217	0xbd67645a	-0.056492187
218	0xbe489f45	-0.19592007
219	0xbcfed50f	-0.031107454
220	0x3e68cf87	0.22735415
221	0x3eb5436d	0.35403004
222	0x3d78f795	0.060782988
223	0xbd9caa86	-0.07649712
224	0xbdbf32d0	-0.093358636
225	0x3bb49206	0.0055105714
226	0x3e5032cf	0.20331882
227	0xbdddceab	-0.108304344
228	0xbe2cd80f	-0.16879295
229	0x3c132663	0.00898132
230	0x3e41ec91	0.18937899
231	0xbe551c4e	-0.20811579
232	0xbdef45d0	-0.116832376
233	0xbe04ef46	-0.129819
234	0x3cf819b6	0.030285697
235	0xbcfe2668	-0.031024173
236	0xbdb1fe58	-0.0869109
237	0x3ddb4085	0.107056655
238	0xbe21d5ed	-0.15804262
239	0xbdd2a749	-0.10285813
240	0xbd478a9d	-0.048716176
241	0x3e4822eb	0.1954457
242	0x3ac0c894	0.0014708214
243	0xbe379480	-0.17927742
244	0xbde8d7cb	-0.11369284
245	0x3e5e2ef2	0.21697596
246	0x3ea02643	0.3127919
247	0x3da27e76	0.07934277
248	0xbbbffd33	-0.005859041
249	0xbe8e96ee	-0.27849525
250	0x3d9e0115	0.0771505
251	0xbd9418d5	-0.07231299
252	0x3e63042c	0.2216956
253	0x3b6ad4e0	0.003583245
254	0xbe759509	-0.23982634
255	0xbddf2b25	-0.10896901
