gnn_models/dataset/yelp/models/hgt.pt (torch, 815290 bytes, 20 tensors)

skip f4 [3]
1.0539705 1.1037525 0.5536564
00000000: 81e8 863f c347 8d3f 6dbc 0d3f

residual_w f4 [16, 64]
-0.36637735 -0.21975707 -0.051460262 -0.11004928 0.36961538 0.108376585 0.07042536 -0.24219126
0.0019430344 0.047705658 -0.25279072 0.12604724 0.13927738 0.11161085 0.08896367 -0.23226933
-0.11232627 0.070818946 0.05366225 -0.20676999 -0.009567011 0.1430112 -0.05540719 0.14354585
0.09469229 -0.19418311 0.06086251 0.038441155 0.07281468 0.045629244 0.19154398 -0.27128696
0.13972542 0.2595139 -0.054982185 0.118694544 0.020469852 -0.026901772 -0.084462255 0.22373691
-0.14869656 0.037931293 -0.047870018 -0.13841298 -0.2581538 0.05271207 -0.10131298 -0.120645896
-0.037396386 0.14408672 -0.063376985 -0.1311641 0.2411987 -0.24829791 -0.1189002 -0.12942484
0.034664832 0.10830577 -0.20906468 -0.040597834 0.2573694 0.09081146 0.20538318 -0.020588778
0.03407084 -0.10864044 -0.20075916 -0.014312969 -0.14666738 -0.17898999 -0.16000578 -0.023234246
0.110117204 0.09571933 -0.10386358 0.14073949 -0.08272317 -0.099562384 -0.033646423 0.14261164
0.12177619 0.05311986 -0.22371091 -0.18865749 0.08077722 -0.03865905 -0.1744035 0.044929083
0.087848715 -0.16550454 0.0056569544 0.20137282 -0.03779777 -0.016815482 0.043790724 -0.17391196
-0.15699813 -0.2001286 -0.058411054 0.15234265 0.12217404 0.08638745 -0.15317008 0.12083753
-0.2063332 0.24568398 0.17904349 0.2594425 -0.19024248 -0.101880684 -0.032647155 -0.089856416
0.06662609 0.23839933 0.16776353 -0.006689212 -0.2089168 -0.17941186 0.20906344 -0.09247955
0.12885377 0.028380698 -0.095741466 -0.17574309 -0.20634387 0.094859935 0.18449962 0.15371077
0.11733678 0.1967666 -0.23242901 0.1459261 -0.16360761 0.09779029 0.11964516 0.13584575
-0.22632079 -0.15074174 -0.17104031 0.22151682 0.15438826 0.11780272 -0.101947926 0.20187938
0.021282602 0.1169936 -0.27270228 -0.15154935 -0.1969248 -0.12859306 0.23682964 0.0719582
0.011213884 -0.1063817 -0.27518752 0.054156594 0.0777292 0.2012364 -0.13234563 0.15984188
-0.20150477 -0.15475988 -0.17388617 0.03422077 0.15008505 -0.0050729373 0.07558077 0.20577215
0.15004875 -0.075121716 0.048126884 -0.035129722 -0.03223305 -0.0055765584 0.030741986 0.2160792
0.15581505 0.1889566 -0.15324746 0.07868987 0.18357335 0.1471493 0.15647149 0.24363177
0.0042648325 -0.08352188 0.18228157 0.17702663 0.08545585 0.25362438 0.12838969 0.117859095
-0.09767259 0.17558727 -0.18831326 -0.14477491 -0.16635936 -0.124303825 -0.10632641 0.103935584
-0.19670059 -0.08463237 0.05164921 -0.048679225 -0.12243326 -0.123316795 -0.15719844 -0.00960587
-0.14671758 -0.10620877 0.10331379 -0.06094445 0.1215611 0.08845261 -0.11797755 0.29993704
-0.04381099 -0.10151125 0.22034714 -0.06758951 0.14299521 0.15379417 0.0057596145 -0.18890458
0.08573997 0.170436 0.024112575 -0.20070703 -0.22033134 0.14573345 0.23403098 0.19707257
0.07192827 0.11269421 0.21229748 0.083325386 -0.00025890055 -0.09097718 -0.006781022 0.17205651
0.01867302 -0.051888663 0.15196554 -0.09499317 0.051042117 -0.06915809 0.21368372 -0.11663353
0.081977986 0.098166116 0.2686262 -0.0638468 0.10877628 0.17603189 0.09928784 0.1663842
00000000: d095 bbbe ff07 61be ffc7 52bd 8461 e1bd
00000010: 3a3e bd3e 8bf4 dd3d 2c3b 903d fc00 78be
00000020: 6aad fe3a 0267 433d c96d 81be 8712 013e
00000030: bb9e 0e3e 3b94 e43d 9632 b63d 03d8 6dbe
00000040: 510b e6bd 8609 913d f3cc 5b3d 83bb 53be
00000050: f4be 1cbc 8771 123e a6f2 62bd affd 123e
00000060: 08ee c13d f0d7 46be f84a 793d 7974 1d3d
00000070: dd1f 953d bbe5 3a3d 1b24 443e 20e6 8abe
00000080: 2e14 0f3e 02df 843e 0035 61bd 2016 f33d
00000090: 64b0 a73c 1b61 dcbc 8cfa acbd 4a1b 653e
000000a0: e943 18be d85d 1b3d 5a13 44bd 22bc 0dbe
000000b0: bc2c 84be 9de8 573d 2e7d cfbd 3215 f7bd
000000c0: f42c 19bd 788b 133e cbcb 81bd e24f 06be
000000d0: cbfc 763e cf41 7ebe f381 f3bd f287 04be
000000e0: b6fc 0d3d 6acf dd3d 0d15 56be ea49 26bd
000000f0: ecc5 833e 5cfb b93d f84f 523e cca9 a8bc
00000100: dd8d 0b3d e17e debd cf93 4dbe f180 6abc
00000110: f92f 16be 2749 37be 8ed8 23be bf55 bebc
00000120: 2185 e13d 7f08 c43d 6eb6 d4bd 031e 103e
00000130: c46a a9bd 5de7 cbbd d5d0 09bd c908 123e
00000140: cc65 f93d 3694 593d 7914 65be 6e2f 41be
00000150: 876e a53d f458 1ebd d596 32be 8f07 383d
00000160: 07ea b33d 067a 29be f95d b93b ad34 4e3e
00000170: d6d1 1abd 9fc0 89bc e75d 333d fa15 32be
00000180: 1ec4 20be 83ee 4cbe 6e40 6fbd b6ff 1b3e
00000190: 6236 fa3d e7eb b03d 9ed8 1cbe ab79 f73d
000001a0: 0349 53be 9594 7b3e 2d57 373e a6d5 843e
000001b0: edce 42be d2a6 d0bd 06b9 05bd a406 b8bd
000001c0: 4273 883d f41e 743e 34ca 2b3e 2d31 dbbb
000001d0: 49ee 55be beb7 37be ba14 563e eb65 bdbd
000001e0: 3ef2 033e a37e e83c 1a14 c4bd fff5 33be
000001f0: cf4b 53be ed45 c23d 78ed 3c3e 5b66 1d3e
00000200: 444e f03d 2f7d 493e df01 6ebe a76d 153e
00000210: c188 27be 4746 c83d 8608 f53d 261b 0b3e
00000220: a3c0 67be 0b5c 1abe 3125 2fbe 4ed5 623e
00000230: f517 1e3e 8d42 f13d 13ca d0bd 78b9 4e3e
00000240: da58 ae3c 579a ef3d a29f 8bbe c12f 1bbe
00000250: a8a6 49be e6ad 03be 7883 723e d25e 933d
00000260: 70ba 373c a6de d9bd 61e5 8cbe 4ed3 5d3d
00000270: 7d30 9f3d ea10 4e3e 9d85 07be 97ad 233e
00000280: 4457 4ebe 6079 1ebe 370f 32be 142b 0c3d
00000290: e5af 193e e23a a6bb 17ca 9a3d efb5 523e
000002a0: 61a6 193e 6ad9 99bd b220 453d 2fe4 0fbd
000002b0: cd06 04bd 90bb b6bb 9ed6 fb3c de43 5d3e
000002c0: fb8d 1f3e d77d 413e e7ec 1cbe 2828 a13d
000002d0: a7fa 3b3e 4eae 163e 103a 203e 9b7a 793e
000002e0: 02c0 8b3b 850d abbd 05a8 3a3e 7846 353e
000002f0: 7a03 af3d 0edb 813e 9678 033e 1c60 f13d
00000300: 9108 c8bd 26cd 333e 31d5 40be e03f 14be
00000310: 1c5a 2abe 0193 febd a9c1 d9bd 2edc d43d
00000320: e16b 49be bc53 adbd 1f8e 533d de63 47bd
00000330: 4abe fabd 848d fcbd a1f8 20be f061 1dbc
00000340: 223d 16be fc83 d9bd 2e96 d33d e3a0 79bd
00000350: 07f5 f83d a426 b53d 379e f1bd 5991 993e
00000360: 2773 33bd 21e5 cfbd aea2 613e 5e6c 8abd
00000370: 566d 123e 387c 1d3e 26bb bc3b 3470 41be
00000380: 7098 af3d c686 2e3e bc87 c53c 2586 4dbe
00000390: 8a9e 61be 263b 153e d1a5 6f3e 64cd 493e
000003a0: 214f 933d 39cc e63d 8364 593e 80a6 aa3d
000003b0: 0bbd 87b9 3e52 babd 5633 debb 952f 303e
000003c0: 29f8 983c 3589 54bd db9c 1b3e c78b c2bd
000003d0: 8a11 513d c2a2 8dbd e8cf 5a3e 8fdd eebd
000003e0: 13e4 a73d 510b c93d 6089 893e 1cc2 82bd
000003f0: 19c6 de3d b441 343e 6c57 cb3d 9f60 2a3e

W f4 [3, 16, 64]
0.06668704 0.11808201 -0.28656235 0.30595946 -0.038024917 0.18141569 -0.04949236 0.31659502
-0.10633258 0.2640507 -0.19586241 -0.31701112 0.07358437 -0.07598196 0.17259382 -0.103388034
0.33008406 -0.12058718 -0.068692245 0.3422526 0.20739597 -0.025383245 -0.0006672224 0.10135168
0.15059547 -0.2225768 0.1469968 -0.071489036 -0.064113215 -0.062171366 0.20710541 -0.033618532
0.20568456 -0.040480316 0.13324298 -0.18714944 0.17003195 -0.27758443 0.24887173 0.047365
-0.124007754 -0.07370365 -0.07431205 0.15627757 -0.27202594 0.16605827 0.070726655 -0.100695014
0.29850218 0.08020527 -0.0058980477 -0.23191413 -0.22719842 -0.31169516 0.036791593 0.11496891
-0.15154521 -0.1367194 -0.045642704 -0.12696613 0.044854753 -0.30112118 0.2188518 0.14147128
0.18874711 0.11441936 -0.34943742 -0.36510286 0.24569619 -0.3197344 0.41022354 -0.1903735
0.005420499 -0.092025585 0.30859733 -0.2580509 0.00029233994 -0.39175275 0.1296667 0.20516504
-0.2719416 0.22258556 0.20270345 -0.031820647 0.15633966 0.07028487 0.26146108 -0.22245596
-0.013054512 0.17921935 0.13569768 0.085520715 -0.06127644 -0.19482417 -0.18126294 -0.16240779
-0.18167453 -0.002516247 -0.3356727 -0.22459812 -0.18331538 0.023560155 0.3497145 -0.13192259
0.09368348 -0.059686415 -0.044439428 -0.29920006 0.21769741 -0.21779297 0.24896118 -0.091292925
-0.1390782 0.1664221 -0.13234447 0.3337743 0.008181215 -0.01922667 0.3229734 0.1775901
0.26661983 -0.12868299 0.280344 -0.17177689 0.21106216 -0.023704246 -0.2702876 0.14692457
0.07424075 0.12674944 0.04327601 0.19608998 -0.14263609 -0.028330207 0.007714581 -0.17849056
0.33904323 -0.0762219 0.017899016 0.080400154 -0.04208437 0.26283917 0.040513135 0.05687673
0.06847782 0.21804975 0.14453748 -0.09627711 0.1430425 -0.11306125 0.08542584 -0.25607854
0.095330246 0.07941792 0.17566726 -0.28059608 -0.055316757 -0.08633311 -0.25140488 0.16842015
0.2821545 0.14776437 0.30579498 -0.11186471 -0.30952248 0.12922585 0.06879603 -0.10341443
0.12066118 0.107110366 -0.056593537 0.27706718 0.076496966 0.16944247 -0.23929231 -0.2606342
0.035317443 -0.27061403 -0.062644206 -0.21933378 -0.14037102 0.019603832 -0.1426973 0.21301651
-0.20916879 -0.13168772 0.28733644 0.19080509 0.11655637 0.070168704 -0.022880968 0.1261898
0.005274555 -0.04426148 0.1899038 0.25902793 0.29605654 -0.0106585855 -0.3967176 -0.07546542
0.25403684 0.11064312 0.022880582 -0.10355796 -0.327872 0.26626354 0.023601515 -0.34724
0.049359765 -0.32544628 -0.081206255 -0.16764452 -0.17313242 0.10543418 -0.07775653 -0.07124217
-0.2124527 0.19172151 0.13021368 -0.031089902 0.13105077 0.24445285 -0.118678235 0.3194618
-0.1681872 -0.08996516 -0.028041802 0.03146994 -0.09016987 0.1307894 0.03270163 -0.077668905
-0.124062985 0.051637813 -0.25329286 -0.21004546 0.03958202 -0.10831033 0.19203013 -0.32400602
0.014453877 0.12418869 -0.011684975 -0.04338089 -0.20826198 0.23617919 0.0386508 0.15247619
0.12135458 -0.123315096 -0.17204824 0.042487707 0.20121665 0.31443325 -0.0489645 -0.14267197
00000000: 3793 883d fbd4 f13d 4db8 92be b8a6 9c3e
00000010: 04c0 1bbd 09c5 393e 80b8 4abd be18 a23e
00000020: e5c4 d9bd a731 873e 2890 48be 484f a2be
00000030: 67b3 963d 6e9c 9bbd 6fbc 303e 1bbd d3bd
00000040: c700 a93e 69f6 f6bd 85ae 8cbd bc3b af3e
00000050: 9c5f 543e 86f0 cfbc 8ae8 2eba 7891 cf3d
00000060: b335 1a3e 2ceb 63be 5486 163e d868 92bd
00000070: ca4d 83bd 67a7 7ebd 7113 543e 96b3 09bd
00000080: f99e 523e b0ce 25bd d970 083e 1aa4 3fbe
00000090: db1c 2e3e 8c1f 8ebe 3bd8 7e3e cd01 423d
000000a0: c7f7 fdbd f0f1 96bd eb30 98bd 3a07 203e
000000b0: fc46 8bbe 2e0b 2a3e 23d9 903d 3039 cebd
000000c0: 47d5 983e a942 a43d 6944 c1bb e67a 6dbe
000000d0: b4a6 68be 8296 9fbe c8b2 163d d274 eb3d
000000e0: ab2e 1bbe 2c00 0cbe d8f3 3abd 6903 02be
000000f0: 9eb9 373d 8e2c 9abe b01a 603e d9dd 103e
00000100: ec46 413e b354 ea3d 76e9 b2be c3ee babe
00000110: c897 7b3e 3ab4 a3be d208 d23e 45f1 42be
00000120: 719e b13b e977 bcbd 7800 9e3e 3f1f 84be
00000130: 3445 9939 d193 c8be 59c7 043e c916 523e
00000140: ee3b 8bbe 78ed 633e 7e91 4f3e 5e56 02bd
00000150: 8117 203e 84f1 8f3d 3ade 853e 7fcb 63be
00000160: 98e2 55bc 4785 373e 55f4 0a3e 7c25 af3d
00000170: 01fd 7abd fd7f 47be fe9c 39be 3a4e 26be
00000180: e308 3abe 9fe7 24bb 4bdd abbe 0dfd 65be
00000190: 07b7 3bbe 3a01 c13c c70d b33e b716 07be
000001a0: 20dd bf3d be79 74bd 1e06 36bd c030 99be
000001b0: 12ec 5e3e 1f05 5fbe aeef 7e3e c9f7 babd
000001c0: 846a 0ebe 8e6a 2a3e 4f85 07be 77e4 aa3e
000001d0: 810a 063c 4081 9dbc c55c a53e 2eda 353e
000001e0: 6582 883e 79c5 03be 4089 8f3e 48e6 2fbe
000001f0: ae20 583e 682f c2bc 2363 8abe 6573 163e
00000200: 890b 983d 9bca 013e 2f42 313d d0cb 483e
00000210: 320f 12be c014 e8bc 99ca fc3b 3bc6 36be
00000220: 1397 ad3e 3a1a 9cbd f5a0 923c d6a8 a43d
00000230: a960 2cbd db92 863e 1af1 253d 93f7 683d
00000240: 193e 8c3d 6f48 5f3e a201 143e ef2c c5bd
00000250: bc79 123e a88c e7bd bef3 ae3d ba1c 83be
00000260: 813c c33d dda5 a23d 1ee2 333e 4aaa 8fbe
00000270: d393 62bd 6acf b0bd 24b8 80be 5576 2c3e
00000280: 8e76 903e 8b4f 173e 2991 9c3e 5319 e5bd
00000290: bb79 9ebe c853 043e efe4 8c3d f2ca d3bd
000002a0: 351d f73d ae5c db3d a0ce 67bd c0db 8d3e
000002b0: 71aa 9c3d 5482 2d3e 0b09 75be d971 85be
000002c0: 06a9 103d ec8d 8abe 9b4b 80bd 0999 60be
000002d0: 6cbd 0fbe 3798 a03c 3e1f 12be 0021 5a3e
000002e0: 5830 56be 25d9 06be c31d 933e 6962 433e
000002f0: 1bb5 ee3d 9cb4 8f3d de70 bbbc e637 013e
00000300: 2dd6 ac3b 874b 35bd 2476 423e 4f9f 843e
00000310: b994 973e 59a1 2ebc 921e cbbe 9d8d 9abd
00000320: 1e11 823e dc98 e23d 0f70 bb3c 3216 d4bd
00000330: d7de a7be b253 883e f757 c13c 71c9 b1be
00000340: 772d 4a3d e5a0 a6be 774f a6bd 01ab 2bbe
00000350: a049 31be e0ed d73d d13e 9fbd 6ae7 91bd
00000360: 338d 59be a552 443e bc56 053e 40b0 febc
00000370: 2c32 063e d951 7a3e 930d f3bd 7f90 a33e
00000380: 4439 2cbe a73f b8bd ecb7 e5bc a0e6 003d
00000390: fbaa b8bd a8ed 053e 25f2 053d e010 9fbd
000003a0: bc14 febd 2c82 533d 9aaf 81be 2816 57be
000003b0: c220 223d ced1 ddbd 8ca3 443e 1ee4 a5be
000003c0: f4cf 6c3c a456 fe3d 5672 3fbc 29b0 31bd
000003d0: a142 55be f5d8 713e 4d50 1e3d b822 1c3e
000003e0: c088 f83d a08c fcbd 6a2d 30be 9707 2e3d
000003f0: bd0b 4e3e 65fd a03e 008f 48bd 9a18 12be

W f4 [3, 16, 64]
0.3702217 -0.44841295 0.3042803 0.06924695 0.020155126 0.17618437 0.21246675 -0.03372836
0.14941818 -0.17459396 0.22670308 0.2419666 -0.06763057 -0.0011943895 -0.13819647 -0.23869649
0.104502745 -0.4117754 -0.21226205 -0.097467385 -0.42943037 -0.2128835 0.0617799 -0.2360879
-0.3829151 -0.43096676 -0.029668873 -0.2629749 -0.47016832 0.056994066 0.25397348 0.42996338
-0.043931607 -0.013164753 0.03584297 0.09954504 -0.12086502 0.2583639 -0.18264715 -0.29389298
0.00336859 0.25250238 -0.13686791 -0.43759662 -0.19661412 0.12948138 -0.274296 -0.048636694
0.02712198 0.051904384 0.105272986 0.051846266 -0.36287692 -0.21174768 -0.05992323 -0.25749543
0.16808096 0.07592102 -0.12640879 -0.08022947 0.028130464 0.038663264 0.16758649 -0.09417372
-0.12306875 -0.066916525 -0.33180836 0.32075125 0.13360137 -0.24877544 -0.36603305 -0.0023192682
0.2533424 -0.35010964 0.11613244 0.19904093 -0.09254128 0.22572735 0.066568755 -0.03665879
-0.21784246 0.08781048 -0.06298535 0.18180208 0.3730121 -0.08099993 0.22067226 0.1047161
0.25652006 0.34606248 -0.05594648 0.20495497 0.08193504 0.3070001 0.10557718 0.1595002
-0.08454984 -0.039626066 0.34401545 -0.15023756 0.16350621 -0.026383908 -0.025122948 0.102912374
-0.06627076 -0.18786946 -0.13979328 -0.026513558 0.2583825 -0.18351066 0.09010894 -0.14152993
0.14079459 0.16811281 0.18268847 -0.16472752 -0.045181308 0.1737778 -0.28502476 0.03794313
-0.21756391 -0.14948267 -0.11095791 -0.060217164 -0.30020016 -0.08801182 0.06316527 0.09449343
-0.040942147 0.3611311 0.30250388 -0.021694602 -0.08325625 -0.2517449 -0.18879107 0.211464
-0.31657636 -0.096829064 0.055288978 -0.12320322 0.042693928 0.10707756 -0.12893726 0.11251166
0.14167622 -0.048776932 -0.028621132 -0.09857451 0.027399227 -0.15523279 0.0931666 0.0025463235
0.15137248 0.09595939 -0.20975013 0.08814817 0.11334016 0.14847487 0.06829954 0.1231063
0.12545244 0.035451688 -0.13045983 -0.07556731 -0.018329807 -0.31446546 0.038766593 0.065105066
0.2702084 -0.14682639 -0.050961737 0.04064957 -0.15032406 -0.022611855 -0.23338129 -0.21211585
0.26369205 -0.066624336 0.11911972 0.18623294 0.25180247 -0.058345128 -0.26366332 -0.17088218
0.14660044 0.03873186 0.073840976 -0.10738174 -0.00644256 -0.015615976 -0.144827 -0.21240607
0.14661486 0.13959466 -0.068586566 -0.2109632 0.21653436 0.020814436 0.25905523 0.0026979803
0.28386235 -0.11738841 0.036594644 -0.025797082 0.037117485 0.12518871 -0.16551626 -0.18133542
-0.16764852 0.28615114 0.039994985 0.05878561 -0.09541147 -0.019692784 -0.26317844 -0.030146271
-0.28084302 0.2533651 -0.021723308 -0.07531218 0.1179558 -0.006801157 0.12878916 -0.16590033
-0.10108233 -0.026233096 0.07728482 -0.06484718 -0.033203904 -0.0025289971 -0.16594069 -0.06784207
0.01271831 0.09794099 -0.05103659 -0.10225764 0.22371513 -0.019815648 -0.05359572 -0.15808177
0.003412143 0.24586459 0.09222151 -0.27998766 -0.22717553 0.112262644 0.22425309 0.17779902
-0.046771757 -0.16884984 0.20356974 -0.15446112 -0.23632081 0.18815817 0.1198724 0.14644869
00000000: b38d bd3e 6296 e5be a1ca 9b3e 58d1 8d3d
00000010: 5d1c a53c ad69 343e e290 593e c026 0abd
00000020: 1401 193e c2c8 32be da24 683e 18c6 773e
00000030: e581 8abd 108d 9cba 6083 0dbe da6c 74be
00000040: 8905 d63d 3ad4 d2be 395b 59be fb9c c7bd
00000050: 4cde dbbe 22fe 59be ec0c 7d3d 07c1 71be
00000060: 730d c4be ada7 dcbe 230c f3bc a5a4 86be
00000070: e7b9 f0be 9c72 693d d008 823e 2924 dc3e
00000080: a1f1 33bd fab0 57bc 14d0 123d 45de cb3d
00000090: 1488 f7bd 4648 843e db07 3bbe 2479 96be
000000a0: 90c3 5c3b fe47 813e 1a27 0cbe aa0c e0be
000000b0: 3655 49be c496 043e 8670 8cbe 4537 47bd
000000c0: ea2e de3c b199 543d 5d99 d73d c05c 543d
000000d0: 01cb b9be 62d4 58be 1072 75bd 71d6 83be
000000e0: 6a1d 2c3e 7b7c 9b3d 4e71 01be 594f a4bd
000000f0: dc71 e63c 5f5d 1e3d cb9b 2b3e 27de c0bd
00000100: 780b fcbd 880b 89bd c9e2 a9be 8239 a43e
00000110: ccce 083e fdbe 7ebe af68 bbbe ddfe 17bb
00000120: 18b6 813e 9241 b3be d8d6 ed3d 63d1 4b3e
00000130: 4886 bdbd 1225 673e 3355 883d 8727 16bd
00000140: 1812 5fbe fbd5 b33d 77fe 80bd 532a 3a3e
00000150: 71fb be3e 4be3 a5bd e9f7 613e 6575 d63d
00000160: 9956 833e 1a2f b13e 2328 65bd b7df 513e
00000170: 8fcd a73d 1e2f 9d3e d938 d83d 0554 233e
00000180: 7728 adbd f14e 22bd cb22 b03e e0d7 19be
00000190: 2c6e 273e 1123 d8bc a4ce cdbc b9c3 d23d
000001a0: f7b8 87bd da60 40be f825 0fbe f632 d9bc
000001b0: b64a 843e 38ea 3bbe 098b b83d 39ed 10be
000001c0: 752c 103e c425 2c3e b012 3b3e 55ae 28be
000001d0: 0910 39bd cff2 313e c4ee 91be 416a 1b3d
000001e0: 13c9 5ebe fc11 19be e73d e3bd 46a6 76bd
000001f0: d6b3 99be 8b3f b4bd cb5c 813d c585 c13d
00000200: f4b2 27bd 2de6 b83e cae1 9a3e e1b8 b1bc
00000210: 4182 aabd b5e4 80be 7252 41be 058a 583e
00000220: 4c16 a2be 514e c6bd b276 623d f851 fcbd
00000230: d4df 2e3d 7b4b db3d 2108 04be 836c e63d
00000240: 9213 113e 52ca 47bd dd76 eabc 6fe1 c9bd
00000250: 5874 e03c 58f5 1ebe 21ce be3d 38e0 263b
00000260: 6301 1b3e 5b86 c43d bdc8 56be 0787 b43d
00000270: e31e e83d cc09 183e a1e0 8b3d 281f fc3d
00000280: 9b76 003e ca35 113d 4397 05be 09c3 9abd
00000290: 6428 96bc 9e01 a1be b8c9 1e3d ce55 853d
000002a0: c158 8a3e a859 16be 41bd 50bd 2a80 263d
000002b0: 8dee 19be 7f3c b9bc 81fb 6ebe e634 59be
000002c0: a502 873e 5772 88bd 0af5 f33d d9b3 3e3e
000002d0: 41ec 803e 4dfb 6ebd e1fe 86be bdfb 2ebe
000002e0: 6d1e 163e 4da5 1e3d f039 973d f5ea dbbd
000002f0: 1c1c d3bb 27da 7fbc 874d 14be fa80 59be
00000300: 3522 163e e7f1 0e3e 1d77 8cbd bd06 58be
00000310: 2fbb 5d3e 0983 aa3c e3a2 843e 99d0 303b
00000320: 6856 913e 5669 f0bd 44e4 153d 6754 d3bc
00000330: 8108 183d 7831 003e 187d 29be feaf 39be
00000340: 0eac 2bbe 6782 923e c8d1 233d 2ec9 703d
00000350: 1767 c3bd c352 a1bc 53bf 86be 50f5 f6bc
00000360: a8ca 8fbe 12b9 813e 14f5 b1bc 463d 9abd
00000370: cf92 f13d 3ddc debb 4ee1 033e c7e1 29be
00000380: 4104 cfbd cae6 d6bc 8147 9e3d 99ce 84bd
00000390: d100 08bd 88bd 25bb 5bec 29be c8f0 8abd
000003a0: 7560 503c 4995 c83d be0b 51bd 746c d1bd
000003b0: 9415 653e 6d54 a2bc 3087 5bbd 30e0 21be
000003c0: 439e 5f3b edc3 7b3e a2de bc3d 8b5a 8fbe
000003d0: b4a0 68be f5e9 e53d 9aa2 653e f210 363e
000003e0: be93 3fbd f9e6 2cbe 9674 503e 0e2b 1ebe
000003f0: 15fe 71be 89ac 403e a97f f53d a5f6 153e

W f4 [3, 16, 64]
-0.1097929 0.19380146 0.15422377 -0.118916176 0.08561661 0.00058807904 0.42198628 0.23229529
-0.2091946 0.018787643 -0.31906372 -0.2089704 -0.2649271 0.04853132 -0.21019128 0.11432847
0.27057925 -0.22956267 -0.070927456 -0.027261747 -0.1661466 0.045355927 -0.190108 0.09351815
-0.31660342 -0.023715781 0.15488642 -0.07405127 -0.22741279 0.07264718 0.111192994 0.03391426
0.13443753 0.17075497 -0.11227332 -0.079826355 0.316284 -0.084777765 0.29682624 -0.014833005
-0.16374688 0.09426269 0.33750457 -0.18318073 0.018472232 0.35392278 0.18257314 0.027633687
0.15906885 0.18209116 -0.2838105 0.02718635 -0.17892796 0.21146171 -0.24582352 -0.11468404
-0.15369868 -0.0049560466 -0.15476301 -0.049611446 0.022084154 -0.30220625 -0.0647969 -0.15805876
-0.13394149 -0.2519774 0.20494743 0.010375521 -0.0825967 0.032727443 -0.27893606 -0.19899614
0.06723155 -0.25723642 0.11426495 0.21422514 -0.114433244 0.25126627 -0.2554567 0.040412206
-0.17978917 0.050375592 -0.33361208 -0.1496061 -0.29841495 0.067673534 -0.083023086 -0.30946234
0.17504194 0.21159592 0.044964153 0.10151927 -0.23924123 -0.0040381146 0.2701897 0.1416684
0.25442916 -0.073503844 -0.21552959 -0.05842333 -0.27162156 0.22887753 0.15444861 -0.050330512
0.099351645 -0.32913172 0.06209055 -0.09706847 -0.10942234 -0.065201834 -0.2658491 -0.26522934
0.3114848 -0.29712945 0.029806405 -0.15255563 0.31492487 -0.010137118 0.28670043 0.11542692
-0.15774693 0.064052194 -0.24315387 -0.09225342 0.14654794 0.17139934 -0.05656361 0.16348602
0.34064138 -0.1670712 -0.13013138 0.25464684 0.02892207 -0.08295821 -0.022287084 0.3314034
-0.121559456 0.27860776 -0.11704357 0.27976537 -0.025962135 0.17033331 0.12592492 0.0364924
-0.21861468 -0.051808473 -0.070564285 0.066533 0.10895038 0.32631117 0.0062982785 -0.08975672
-0.25755516 0.22254305 -0.19043499 -0.15437557 -0.1943966 0.195693 0.023086037 -0.018059164
0.09125606 -0.046521734 0.21178289 0.18688878 -0.14266017 -0.3081194 0.08083022 0.04422666
0.27469197 0.12747253 -0.16984709 0.09944118 -0.080867544 0.13652349 0.18016325 -0.0985094
0.072873905 0.059119646 -0.23662612 -0.32544646 0.33440197 0.23366597 -0.077022344 -0.20203899
-0.30129045 0.20868078 0.08694717 -0.09668182 -0.03783192 0.104110315 0.13567315 -0.268413
-0.3145478 0.0023691878 0.05528498 -0.089414276 -0.016802587 0.17025898 -0.19337797 0.09738054
-0.13572803 -0.26633507 -0.015638787 0.049717586 -0.21688522 -0.23920524 0.07441419 -0.27235308
0.15016022 -0.11226557 0.02664771 -0.07860645 0.2487042 0.112750135 0.07695638 0.1740381
-0.25322735 0.06817636 0.26058432 0.0573705 0.3218625 -0.07277634 0.018420922 -0.114737906
0.1779734 0.09700018 0.33182427 -0.04596 0.15106346 -0.24639206 -0.09997352 0.39582556
0.1307253 -0.240387 -0.16711274 0.22905707 -0.19288412 -0.25388774 -0.21613261 0.0778146
0.17273536 -0.25271186 0.27675876 -0.08508649 0.07384754 0.20197237 -0.04610871 -0.21970406
-0.24029887 -0.14953883 -0.18759865 0.053357944 0.05108671 -0.19799742 -0.31190348 0.05043781
00000000: 1adb e0bd e473 463e d6ec 1d3e 538a f3bd
00000010: c357 af3d 5129 1a3a 960e d83e d1de 6d3e
00000020: 1c37 56be 8be8 993c 525c a3be 56fc 55be
00000030: 86a4 87be c7c8 463d 623c 57be 0b25 ea3d
00000040: 5d89 8a3e 7a12 6bbe 6a42 91bd 0754 dfbc
00000050: 5622 2abe 23c7 393d acab 42be 7286 bf3d
00000060: d819 a2be 9947 c2bc 8c9a 1e3e 31a8 97bd
00000070: e6de 68be 0bc8 943d 27b9 e33d aee9 0a3d
00000080: fea9 093e 64da 2e3e 8eef e5bd 007c a3bd
00000090: faef a13e f79f adbd 9cf9 973e 2206 73bc
000000a0: 43ad 27be cc0c c13d 66cd ac3e bb93 3bbe
000000b0: 1453 973c 5e35 b53e 74f4 3a3e 0b60 e23c
000000c0: f2e2 223e 1b76 3a3e 9c4f 91be e9b5 de3c
000000d0: e438 37be 6b89 583e 29b9 7bbe 77df eabd
000000e0: 3063 1dbe 5566 a2bb 327a 1ebe 5f35 4bbd
000000f0: d4e9 b43c c7ba 9abe 3db4 84bd 28da 21be
00000100: f527 09be 2f03 81be bddd 513e 17fe 293c
00000110: 7528 a9bd 360d 063d b5d0 8ebe a5c5 4bbe
00000120: b2b0 893d 7eb4 83be be03 ea3d d65d 5b3e
00000130: fa5b eabd f9a5 803e 38cb 82be 4587 253d
00000140: a71a 38be a356 4e3d 34cf aabe 5732 19be
00000150: d8c9 98be 6c98 8a3d 0208 aabd d971 9ebe
00000160: 323e 333e 9aac 583e 552c 383d 56e9 cf3d
00000170: a7fb 74be 2952 84bb 4e56 8a3e 8511 113e
00000180: 8a44 823e 2f89 96bd cab3 5cbe 4d4d 6fbd
00000190: fb11 8bbe df5e 6a3e c727 1e3e 5e27 4ebd
000001a0: e078 cb3d f483 a8be a952 7e3d d6cb c6bd
000001b0: d218 e0bd 8a88 85bd 601d 88be 24cc 87be
000001c0: f07a 9f3e 5a21 98be 902c f43c 8b37 1cbe
000001d0: d53d a13e 2816 26bc 66ca 923e f364 ec3d
000001e0: 6988 21be cc2d 833d 54fd 78be 5cef bcbd
000001f0: aa10 163e 4f83 2f3e 3eaf 67bd e168 273e
00000200: 8c68 ae3e b614 2bbe 2941 05be 1261 823e
00000210: faed ec3c fee5 a9bd 6793 b6bc b5ad a93e
00000220: 2af4 f8bd ada5 8e3e 8ab4 efbd 683d 8f3e
00000230: 8bae d4bc db6b 2e3e 76f2 003e 0e79 153d
00000240: 87dc 5fbe 1f35 54bd 0284 90bd 7442 883d
00000250: 6021 df3d 4212 a73e ca61 ce3b 5fd2 b7bd
00000260: 45de 83be 53e2 633e 6401 43be a114 1ebe
00000270: e70f 47be bf63 483e ee1e bd3c d0f0 93bc
00000280: 75e4 ba3d 938d 3ebd 9ddd 583e c65f 3f3e
00000290: 8215 12be d3c1 9dbe 508a a53d 0427 353d
000002a0: 6da4 8c3e 2988 023e 65ec 2dbe d1a7 cb3d
000002b0: e29d a5bd d0cc 0b3e b77c 383e 4cbf c9bd
000002c0: ea3e 953d 7127 723d 1e4e 72be eba0 a6be
000002d0: bc36 ab3e 2246 6f3e e4bd 9dbd 4fe3 4ebe
000002e0: be42 9abe 6ab0 553e 5c11 b23d 1e01 c6bd
000002f0: a5f5 1abd ca37 d53d e7ed 0a3e 6e6d 89be
00000300: 690c a1be 6044 1b3b 8172 623d d51e b7bd
00000310: 94a5 89bc 5f58 2e3e e004 46be 736f c73d
00000320: 4afc 0abe 125d 88be ea1c 80bc aba4 4b3d
00000330: 2917 5ebe 38f2 74be 7866 983d dd71 8bbe
00000340: 9ac3 193e 7eeb e5bd 4c4c da3c 6bfc a0bd
00000350: 50ac 7e3e 8be9 e63d 4e9b 9d3d 0b37 323e
00000360: 04a7 81be 0ca0 8b3d 4f6b 853e 54fd 6a3d
00000370: 29cb a43e c30b 95bd 79e7 963c b5fb eabd
00000380: a93e 363e 08a8 c63d dfe4 a93e 8e40 3cbd
00000390: 61b0 1a3e 334e 7cbe ebbe ccbd a6a9 ca3e
000003a0: dadc 053e 0228 76be 9a1f 2bbe f08d 6a3e
000003b0: 6a83 45be 93fd 81be de51 5dbe 435d 9f3d
000003c0: 8ae1 303e 7363 81be 53b3 8d3e d341 aebd
000003d0: 613d 973d d8d1 4e3e 7ddc 3cbd 1afa 60be
000003e0: e810 76be b520 19be dc19 40be dc8d 5a3d
000003f0: 4c40 513d d6bf 4abe d0b1 9fbe e197 4e3d

W f4 [3, 64, 64]
0.17299971 0.0049362145 0.12794316 0.036890443 -0.04779329 0.07096519 -0.10762356 0.12869616
-0.030127699 -0.027219724 0.080401294 0.09282102 0.035959534 0.036562778 0.031227589 0.053053636
0.09032563 0.013573719 -0.03894645 -0.036602516 0.12554999 -0.005313707 0.020679506 -0.053590253
0.07573193 -0.04486558 -0.0829415 -0.12149325 0.07927578 -0.08823925 -0.18201862 0.15134129
-0.14990796 0.113299765 0.13640295 0.15644552 0.08540272 -0.120237134 0.049185567 -0.05159097
0.08413624 0.008528607 0.2171126 -0.04120219 0.059236195 0.10832449 0.12528716 0.07745802
-0.16475499 -0.15737984 0.055402298 -0.18250182 -0.055581775 0.11741575 -0.101950824 0.017093891
0.013592542 0.036592558 -0.0737615 0.02150394 -0.26709306 0.12335865 -0.06496682 0.0676882
0.013291162 0.10496613 -0.052115463 -0.047685012 0.06864929 0.047712497 -0.04010201 0.20325127
-0.110695794 -0.088884786 -0.017260015 0.13425237 0.061259937 -0.18775712 -0.12963942 -0.0067506176
0.20908351 0.058071867 -0.0123244375 0.08783415 -0.30776635 -0.018014798 0.068557695 -0.2143528
0.020502232 -0.03656964 -0.009512007 -0.034963332 0.12199895 0.092345886 0.093629 0.08788095
-0.18597633 0.10101933 0.18820639 -0.06773235 -0.0308667 -0.045773502 -0.028852917 0.0027408956
0.049745064 0.0012219794 0.09214936 0.024729796 0.03370111 0.19343418 0.052205916 -0.044832442
-0.057675164 0.022896064 0.07802309 -0.017397158 -0.16102329 0.20750278 0.13295731 -0.0054833195
-0.1030653 -0.045120418 0.10147338 0.016188327 0.22973987 -0.06958681 0.026315281 -0.19194376
0.14402562 0.018843098 0.075187445 -0.060084146 -0.011994716 0.032010693 0.07090671 0.13046946
0.100797646 -0.008621841 -0.06061369 -0.03306554 0.055334367 -0.10355595 -0.11106856 0.029022183
-0.19867177 -0.103330046 0.14964062 0.058115225 -0.122967124 0.013535846 -0.05762482 0.012599909
-0.030564478 -0.10156522 0.09528947 -0.115831956 0.039267328 0.13762954 0.044119887 0.10891658
0.23967682 -0.035682525 0.08858985 0.10191402 -0.12233078 -0.008282948 -0.20795064 -0.08121122
-0.10234139 -0.078308545 -0.042671498 -0.07202947 0.040257346 -0.017915677 0.013877019 -0.0075442134
0.15008095 -0.06254584 0.031782653 0.11937234 -0.078236796 0.117618926 0.046558842 -0.092110954
0.17157553 0.07197922 0.0022562852 -0.13090257 -0.13470401 -0.023744011 0.11287537 -0.0510321
0.028961642 -0.08621501 0.030158043 0.045664683 0.09459151 0.03173761 -0.06846526 0.04866251
-0.10037658 0.04956994 -0.14221765 -0.11102957 -0.1373077 0.03667594 0.13896689 0.026895804
0.10785091 -0.053273328 0.05390425 -0.08974655 0.02345451 0.07247185 -0.049438436 0.007597699
-0.12643185 -0.028046675 -0.108768746 0.08683326 -0.053214837 0.03743438 0.12145358 0.13472427
-0.06253406 0.03853975 -0.052958958 -0.10047889 0.037349448 -0.0640704 -0.051703215 0.042415608
0.019720308 0.026357433 -0.14416897 -0.05762103 0.030195106 -0.12555404 -0.008146762 -0.094029844
-0.035014078 0.03287447 -0.15027261 0.029042123 -0.013453198 0.048442427 0.011542041 -0.05938642
-0.16982906 -0.09066107 -0.005621989 0.15166931 -0.106829464 0.039019194 0.049341876 0.047411345
00000000: d626 313e f8bf a13b 8803 033e 6f1a 173d
00000010: e6c2 43bd 3356 913d be69 dcbd edc8 033e
00000020: 5dce f6bc e6fb debc 6fa9 a43d f218 be3d
00000030: 4e4a 133d dac2 153d 00d1 ff3c c54e 593d
00000040: a5fc b83d 4e64 5e3c 5086 1fbd 85ec 15bd
00000050: 2d90 003e 9b1e aebb 1168 a93c 7481 5bbd
00000060: 5819 9b3d f8c4 37bd 3cdd a9bd 74d1 f8bd
00000070: 575b a23d c8b6 b4bd 1763 3abe 36f9 1a3e
00000080: 7981 19be b509 e83d 37ad 0b3e 4133 203e
00000090: 9fe7 ae3d e33e f6bd ce76 493d 0e51 53bd
000000a0: 9f4f ac3d 92bb 0b3c c452 5e3e a1c3 28bd
000000b0: a7a1 723d 3bd9 dd3d 474b 003e 4fa2 9e3d
000000c0: 88b5 28be 2e28 21be 85ed 623d c2e1 3abe
000000d0: b7a9 63bd ab77 f03d 98cb d0bd 7d08 8c3c
000000e0: 41b3 5e3c 14e2 153d 4510 97bd 0829 b03c
000000f0: 6cc0 88be 76a3 fc3d 530d 85bd 1ca0 8a3d
00000100: 2dc3 593c 7bf8 d63d 0677 55bd 5c51 43bd
00000110: 0098 8c3d 2e6e 433d 0142 24bd 1a21 503e
00000120: 7ab4 e2bd 3a09 b6bd e064 8dbc 7479 093e
00000130: b3eb 7a3d 6743 40be 32c0 04be 4934 ddbb
00000140: fd19 563e c4dc 6d3d 70ec 49bc 64e2 b33d
00000150: 8d93 9dbe c593 93bc fa67 8c3d 4d7f 5bbe
00000160: 4cf4 a73c 0cca 15bd 40d8 1bbc b635 0fbd
00000170: 96da f93d d71f bd3d 90c0 bf3d edfa b33d
00000180: 9470 3ebe 39e3 ce3d 2db9 403e 42b7 8abd
00000190: 29dc fcbc ff7c 3bbd f45c ecbc 99a0 333b
000001a0: 7bc1 4b3d d32a a03a ceb8 bc3d 2496 ca3c
000001b0: 2d0a 0a3d 9c13 463e dfd5 553d 39a2 37bd
000001c0: cb3c 6cbd 8790 bb3c 92ca 9f3d 7c84 8ebc
000001d0: 4ae3 24be 9c7b 543e f625 083e 6bad b3bb
000001e0: e613 d3bd 30d0 38bd 47d1 cf3d 629d 843c
000001f0: ee40 6b3e 8883 8ebd 2593 d73c e88c 44be
00000200: 747b 133e d75c 9a3c e0fb 993d cb1a 76bd
00000210: 7c85 44bc a51d 033d 8a37 913d c999 053e
00000220: ff6e ce3d 9f42 0dbc 1046 78bd bb6f 07bd
00000230: 4aa6 623d 2415 d4bd ea77 e3bd eebf ed3c
00000240: 9d70 4bbe b49e d3bd 643b 193e 3b0a 6e3d
00000250: 30d6 fbbd 74c5 5d3c 0108 6cbd d96f 4e3c
00000260: 5b62 fabc 6d01 d0bd 2027 c33d 4e39 edbd
00000270: c7d6 203d c2ee 0c3e 0eb7 343d a80f df3d
00000280: d76d 753e d727 12bd 986e b53d 4cb8 d03d
00000290: 8f88 fabd 34b5 07bc 03f1 54be 1152 a6bd
000002a0: 5d98 d1bd 3b60 a0bd 4fc8 2ebd 3084 93bd
000002b0: e3e4 243d e6c3 92bc 705c 633c 7335 f7bb
000002c0: d2ae 193e 0918 80bd 872e 023d 7c79 f43d
000002d0: 9d3a a0bd 31e2 f03d 7cb4 3e3d aba4 bcbd
000002e0: 7fb1 2f3e d769 933d 2fde 133b 530b 06be
000002f0: d9ef 09be cd82 c2bc 342b e73d 0907 51bd
00000300: f740 ed3c 7f91 b0bd 000e f73c e40a 3b3d
00000310: 32b9 c13d 4cff 013d 8437 8cbd 5752 473d
00000320: 3d92 cdbd d909 4b3d 81a1 11be 7963 e3bd
00000330: 649a 0cbe 8339 163d 564d 0e3e 9754 dc3c
00000340: f0e0 dc3d 2235 5abd b4ca 5c3d 0acd b7bd
00000350: ac23 c03c 1f6c 943d f57f 4abd 1ef6 f83b
00000360: 5a77 01be 24c2 e5bc 26c2 debd a3d5 b13d
00000370: cdf7 59bd cb54 193d a8bc f83d 29f5 093e
00000380: db11 80bd dbdb 1d3d 7eeb 58bd e0c7 cdbd
00000390: bcfb 183d 5837 83bd c0c6 53bd fdbb 2d3d
000003a0: 7c8c a13c 8beb d73c 08a1 13be 0704 6cbd
000003b0: ba5b f73c 3d91 00be ff79 05bc b892 c0bd
000003c0: ec6a 0fbd 61a7 063d 10e1 19be bfe9 ed3c
000003d0: cd6a 5cbc 916b 463d d41a 3d3c 2d3f 73bd
000003e0: abe7 2dbe 83ac b9bd a938 b8bb 334f 1b3e
000003f0: 68c9 dabd 97d2 1f3d b51a 4a3d 6632 423d

0 f4 [87]
0.5521017 0.5536564 0.5536564 0.5536564 0.5536564 0.5536564 0.5536564 0.5536564
0.5536564 0.5536564 0.5536564 0.5536564 0.5536564 0.5536564 0.5536564 0.5536564
0.5536564 0.5536564 0.5536564 0.5536564 0.5536564 0.5536564 0.5536564 0.5536564
0.5536564 0.5536564 0.5536564 0.5536564 0.5536564 0.5536564 0.5536564 0.5536564
0.5536564 0.5536564 0.5536564 0.5536564 0.5536564 0.5536564 0.5536564 0.5536564
0.5536564 0.5536564 1.2218277 1.034594 1.034622 1.1498061 1.0706043 1.0593007
0.9584216 0.9759745 1.0429146 1.046337 1.0239811 1.0308518 1.0213743 1.0411994
0.986515 1.1010652 1.2145271 1.0472403 1.1759844 1.0311855 1.0120587 1.0006644
1.0445493 0.99192476 1.036785 0.9801775 0.6620484 0.99689955 1.0037501 0.9624991
1.0682443 0.85601395 0.97678995 0.9623288 0.97243565 1.0221835 0.9289345 0.59651595
0.89551145 1.0512844 0.53888375 0.60407764 1.0413449 1.1650105 0.94520116
00000000: 8956 0d3f 6dbc 0d3f 6dbc 0d3f 6dbc 0d3f
00000010: 6dbc 0d3f 6dbc 0d3f 6dbc 0d3f 6dbc 0d3f
00000020: 6dbc 0d3f 6dbc 0d3f 6dbc 0d3f 6dbc 0d3f
00000030: 6dbc 0d3f 6dbc 0d3f 6dbc 0d3f 6dbc 0d3f
00000040: 6dbc 0d3f 6dbc 0d3f 6dbc 0d3f 6dbc 0d3f
00000050: 6dbc 0d3f 6dbc 0d3f 6dbc 0d3f 6dbc 0d3f
00000060: 6dbc 0d3f 6dbc 0d3f 6dbc 0d3f 6dbc 0d3f
00000070: 6dbc 0d3f 6dbc 0d3f 6dbc 0d3f 6dbc 0d3f
00000080: 6dbc 0d3f 6dbc 0d3f 6dbc 0d3f 6dbc 0d3f
00000090: 6dbc 0d3f 6dbc 0d3f 6dbc 0d3f 6dbc 0d3f
000000a0: 6dbc 0d3f 6dbc 0d3f da64 9c3f 946d 843f
000000b0: 7e6e 843f d92c 933f 9009 893f 2a97 873f
000000c0: 1e5b 753f 77d9 793f 3a7e 853f 5fee 853f
000000d0: d011 833f f4f2 833f 65bc 823f 0646 853f
000000e0: 3f8c 7c3f b4ef 8c3f a075 9b3f f80b 863f
000000f0: a886 963f e3fd 833f 248b 813f c515 803f
00000100: cbb3 853f c8ee 7d3f 5fb5 843f eaec 7a3f
00000110: 017c 293f cf34 7f3f e27a 803f 5766 763f
00000120: 3bbc 883f bb23 5b3f e80e 7a3f 2e5b 763f
00000130: 8bf1 783f e9d6 823f a7ce 6d3f 45b5 183f
00000140: 3d40 653f 7d90 863f 49f4 093f d5a4 1a3f
00000150: ca4a 853f 101f 953f b4f8 713f

1 f4 [87]
0.5526888 0.5536564 0.5536564 0.5536564 0.5536564 0.5536564 0.5536564 0.5536564
0.5536564 0.5536564 0.5536564 0.5536564 0.5536564 0.5536564 0.5536564 0.5536564
0.5536564 0.5536564 0.5536564 0.5536564 0.5536564 0.5536564 0.5536564 0.5536564
0.5536564 0.5536564 0.5536564 0.5536564 0.5536564 0.5536564 0.5536564 0.5536564
0.5536564 0.5536564 0.5536564 0.5536564 0.5536564 0.5536564 0.5536564 0.5536564
0.5536564 0.5536564 1.0370471 1.0249863 1.0843016 0.969765 1.0577208 0.95285493
1.102188 1.0579449 1.1795871 0.945731 1.0643765 1.010249 1.0594518 1.0441895
1.0357093 1.0525233 1.3049539 1.0086306 1.0071969 1.1221882 1.1060311 0.9610118
1.3462509 0.9931525 1.0421484 0.9733721 0.72288465 0.9822441 0.9525334 1.0195221
0.99081856 1.0926895 1.0261652 1.1396941 0.9920247 0.94427156 0.8451194 0.6727002
0.90760297 1.0085257 0.56731415 1.0434965 1.0810611 1.1111984 1.1651818
00000000: 037d 0d3f 6dbc 0d3f 6dbc 0d3f 6dbc 0d3f
00000010: 6dbc 0d3f 6dbc 0d3f 6dbc 0d3f 6dbc 0d3f
00000020: 6dbc 0d3f 6dbc 0d3f 6dbc 0d3f 6dbc 0d3f
00000030: 6dbc 0d3f 6dbc 0d3f 6dbc 0d3f 6dbc 0d3f
00000040: 6dbc 0d3f 6dbc 0d3f 6dbc 0d3f 6dbc 0d3f
00000050: 6dbc 0d3f 6dbc 0d3f 6dbc 0d3f 6dbc 0d3f
00000060: 6dbc 0d3f 6dbc 0d3f 6dbc 0d3f 6dbc 0d3f
00000070: 6dbc 0d3f 6dbc 0d3f 6dbc 0d3f 6dbc 0d3f
00000080: 6dbc 0d3f 6dbc 0d3f 6dbc 0d3f 6dbc 0d3f
00000090: 6dbc 0d3f 6dbc 0d3f 6dbc 0d3f 6dbc 0d3f
000000a0: 6dbc 0d3f 6dbc 0d3f f6bd 843f c032 833f
000000b0: 65ca 8a3f 8542 783f 6563 873f 4dee 733f
000000c0: 7f14 8d3f bd6a 873f b6fc 963f 6d1b 723f
000000d0: 7d3d 883f d74f 813f 1e9c 873f 00a8 853f
000000e0: 1f92 843f 15b9 863f bb08 a73f cf1a 813f
000000f0: d4eb 803f dda3 8f3f 6d92 8d3f df04 763f
00000100: f351 ac3f 3e3f 7e3f 1e65 853f ea2e 793f
00000110: f80e 393f 5974 7b3f 3bd9 733f b37f 823f
00000120: 49a6 7d3f 40dd 8b3f 6259 833f 7fe1 913f
00000130: 55f5 7d3f c8bb 713f bf59 583f 1536 2c3f
00000140: ab58 683f 5f17 813f 803b 113f 4b91 853f
00000150: 3660 8a3f c03b 8e3f ad24 953f

2 f4 [87]
0.5527429 0.5536564 0.5536564 0.5536564 0.5536564 0.5536564 0.5536564 0.5536564
0.5536564 0.5536564 0.5536564 0.5536564 0.5536564 0.5536564 0.5536564 0.5536564
0.5536564 0.5536564 0.5536564 0.5536564 0.5536564 0.5536564 0.5536564 0.5536564
0.5536564 0.5536564 0.5536564 0.5536564 0.5536564 0.5536564 0.5536564 0.5536564
0.5536564 0.5536564 0.5536564 0.5536564 0.5536564 0.5536564 0.5536564 0.5536564
0.5536564 0.5536564 1.1885399 1.0325886 1.0859032 0.9725388 1.0920682 1.013289
1.0340219 0.93567604 1.0574383 1.0777445 1.1977962 1.1176933 1.0805986 1.0625359
1.0471096 1.0084972 1.0560491 0.92536527 0.95877707 0.9463254 1.0849235 1.1801772
1.0758518 1.0687518 1.0058092 0.9736361 0.8351985 0.9509332 1.0427995 1.1114197
0.9958589 0.9359193 0.91807455 1.0202706 1.07987 1.0283183 0.95585614 0.7124821
0.9286587 0.8479647 0.6028566 0.9128018 1.1196694 1.1077756 1.0001166
00000000: 8f80 0d3f 6dbc 0d3f 6dbc 0d3f 6dbc 0d3f
00000010: 6dbc 0d3f 6dbc 0d3f 6dbc 0d3f 6dbc 0d3f
00000020: 6dbc 0d3f 6dbc 0d3f 6dbc 0d3f 6dbc 0d3f
00000030: 6dbc 0d3f 6dbc 0d3f 6dbc 0d3f 6dbc 0d3f
00000040: 6dbc 0d3f 6dbc 0d3f 6dbc 0d3f 6dbc 0d3f
00000050: 6dbc 0d3f 6dbc 0d3f 6dbc 0d3f 6dbc 0d3f
00000060: 6dbc 0d3f 6dbc 0d3f 6dbc 0d3f 6dbc 0d3f
00000070: 6dbc 0d3f 6dbc 0d3f 6dbc 0d3f 6dbc 0d3f
00000080: 6dbc 0d3f 6dbc 0d3f 6dbc 0d3f 6dbc 0d3f
00000090: 6dbc 0d3f 6dbc 0d3f 6dbc 0d3f 6dbc 0d3f
000000a0: 6dbc 0d3f 6dbc 0d3f 1322 983f dd2b 843f
000000b0: e0fe 8a3f 4ef8 783f e4c8 8b3f 74b3 813f
000000c0: d45a 843f 7788 6f3f 235a 873f 88f3 893f
000000d0: 6351 993f 9310 8f3f 0e51 8a3f 2d01 883f
000000e0: b007 863f 7016 813f 9e2c 873f bde4 6c3f
000000f0: 6a72 753f 6242 723f c6de 8a3f 0c10 973f
00000100: 83b5 893f dccc 883f 5bbe 803f 3740 793f
00000110: 92cf 553f 5c70 733f 747a 853f 0043 8e3f
00000120: 9cf0 7e3f 6898 6f3f ef06 6b3f 3a98 823f
00000130: 2e39 8a3f ef9f 833f fdb2 743f 3a65 363f
00000140: 94bc 6d3f 3714 593f cf54 1a3f 61ad 693f
00000150: 5451 8f3f 97cb 8d3f d203 803f

3 f4 [87]
0.5523422 0.5536564 0.5536564 0.5536564 0.5536564 0.5536564 0.5536564 0.5536564
0.5536564 0.5536564 0.5536564 0.5536564 0.5536564 0.5536564 0.5536564 0.5536564
0.5536564 0.5536564 0.5536564 0.5536564 0.5536564 0.5536564 0.5536564 0.5536564
0.5536564 0.5536564 0.5536564 0.5536564 0.5536564 0.5536564 0.5536564 0.5536564
0.5536564 0.5536564 0.5536564 0.5536564 0.5536564 0.5536564 0.5536564 0.5536564
0.5536564 0.5536564 1.0923659 0.99207616 1.0669357 0.99993604 0.9538768 1.0937134
0.9740988 1.0401683 1.0503306 0.9764907 1.0434461 1.0139887 1.0107042 1.0286684
1.003821 1.0005835 1.2605939 0.9572776 0.96727973 1.0771837 1.1740079 1.0051502
1.0672679 1.0614381 0.89336604 1.003931 0.64221346 0.86609995 1.0322473 1.1518426
0.8832548 0.99252963 0.8556682 1.0541421 1.0967561 0.9187624 0.96532494 0.739858
0.81199193 0.7346133 0.5693071 0.6848811 1.063821 1.1367837 0.9946019
00000000: 4c66 0d3f 6dbc 0d3f 6dbc 0d3f 6dbc 0d3f
00000010: 6dbc 0d3f 6dbc 0d3f 6dbc 0d3f 6dbc 0d3f
00000020: 6dbc 0d3f 6dbc 0d3f 6dbc 0d3f 6dbc 0d3f
00000030: 6dbc 0d3f 6dbc 0d3f 6dbc 0d3f 6dbc 0d3f
00000040: 6dbc 0d3f 6dbc 0d3f 6dbc 0d3f 6dbc 0d3f
00000050: 6dbc 0d3f 6dbc 0d3f 6dbc 0d3f 6dbc 0d3f
00000060: 6dbc 0d3f 6dbc 0d3f 6dbc 0d3f 6dbc 0d3f
00000070: 6dbc 0d3f 6dbc 0d3f 6dbc 0d3f 6dbc 0d3f
00000080: 6dbc 0d3f 6dbc 0d3f 6dbc 0d3f 6dbc 0d3f
00000090: 6dbc 0d3f 6dbc 0d3f 6dbc 0d3f 6dbc 0d3f
000000a0: 6dbc 0d3f 6dbc 0d3f a5d2 8b3f b4f8 7d3f
000000b0: 5991 883f cffb 7f3f 4531 743f cdfe 8b3f
000000c0: 8a5e 793f 3c24 853f 3c71 863f 4bfb 793f
000000d0: a48f 853f 62ca 813f c15e 813f 68ab 833f
000000e0: 357d 803f 1f13 803f 245b a13f 2510 753f
000000f0: a59f 773f 28e1 893f e445 963f c3a8 803f
00000100: 3c9c 883f 34dd 873f a3b3 643f d080 803f
00000110: 1a68 243f bab8 5d3f ae20 843f 946f 933f
00000120: fd1c 623f 6c16 7e3f 120d 5b3f 21ee 863f
00000130: 8162 8c3f 0334 6b3f 891f 773f 5567 3d3f
00000140: b4de 4f3f 9e0f 3c3f 1cbe 113f 5e54 2f3f
00000150: 492b 883f 2182 913f 3b9e 7e3f

W f4 [87, 16, 16]
0.0001540167 0.00018544219 -0.0012402668 0.0005419948 0.00069300714 -0.0002769764 0.0007743643 -0.0016503229
-0.00050632685 -0.000428737 9.929577e-05 0.00063678966 -0.00078367797 0.0006127856 0.0030645153 0.0027540638
0.00032611957 0.0005889617 -0.00067795365 0.0003761607 0.00024070736 0.0010897679 -0.00023969151 -0.0019327009
-0.00066389045 -0.0020718726 0.00021192156 -0.0001548163 -0.0007009279 0.0023649463 0.0009924484 0.0017059147
-0.0028857277 -0.0019099333 0.002862368 -0.0013130191 -0.0011651977 0.005145959 0.00034067058 0.0051463456
0.0019121182 -0.00066633493 -4.3808992e-05 0.002131482 0.00060418743 -0.0020733152 -0.004200408 -0.0029740445
-0.001258402 -0.0037952664 0.0037795557 -0.0029247229 -0.0019968906 0.0046531055 0.0001341729 0.0056767524
0.0019643588 0.0031029112 0.0005808054 -0.001168246 0.0012581138 -0.0033899492 -0.002655602 -0.003670864
0.00022378187 0.0027033084 -0.0025149074 0.0026902354 -0.0021562898 -0.0017290711 0.0007498489 -0.002967428
-0.0006884959 -0.00037763536 0.0010052423 0.001204622 -1.1140971e-05 0.0008871753 1.093769e-05 0.00272985
-0.0003726064 -0.00094211556 0.001994748 -0.0022452183 0.0006939599 0.0022233715 -1.3497198e-05 0.0033351323
0.00075671205 0.0006627077 0.0005425354 0.000980315 0.00057789136 -0.0030819867 -0.0030678778 -0.0030329414
0.0006491561 0.0009306041 -0.0012724051 0.0018996967 0.00012765468 -0.0027829944 0.001625094 -0.0033438616
-0.0025921937 -0.00050161144 -0.0013766024 0.0003187235 -0.0009084553 0.0029546316 0.00062239385 0.0022089316
-0.0012337863 -0.00018458585 0.0018156018 -0.0011230541 -0.00061836786 0.0021482012 7.259228e-05 0.0019552794
0.0014491661 -0.0015063805 -0.0010254196 0.00051992584 0.0006306401 -0.0015011516 -0.0019253612 -0.0012649661
-0.00033718834 -0.0024559975 0.0014002674 -0.0024660784 -0.00014956098 0.0010089381 0.00078541087 0.0015787304
0.0008245119 0.00059311563 -0.0010158973 7.158745e-05 0.0006941995 -0.00084536016 -0.0003581181 -0.0006955609
0.00051964144 -1.2015523e-05 0.0014847239 0.0009432983 0.00019556242 0.00061764295 0.000609395 0.0004968021
-8.468818e-05 0.0022990075 -0.00012689359 -0.0010644307 -0.00030727338 0.00016808744 -0.00061433174 -0.0006828115
-0.00041010274 4.0950727e-06 -0.0020385468 7.848129e-05 -0.0017236024 -0.00039000556 -4.831796e-05 -0.00021863022
-0.0001436358 -0.0021459167 2.354797e-05 5.8461763e-05 0.0007769479 0.00080499036 -0.00075904286 0.00053183193
1.8528333e-05 0.00039337925 -0.0008426119 0.00044662663 0.00042074572 -0.0003064469 -0.00043326124 0.0009170543
-0.00010804802 -0.00029827683 -0.0021596765 6.617948e-05 0.0019720776 0.00055394415 0.0013355083 0.00051614514
0.00012710984 0.0006626145 0.00030136466 0.0013144223 0.00041651164 -0.0021534753 -0.00014233311 -0.004273975
-0.00056745816 -0.00031860583 -0.00025153917 0.0008090651 -0.0009746528 0.0023170756 0.003008597 0.0013000866
0.0014328633 0.0011650007 0.0019215866 -0.0008760356 -0.00033222028 -0.00045021443 0.00044178774 0.003100802
0.00062123 0.000522057 0.00016087528 0.0019135262 2.5539302e-05 -0.0016708984 -0.0015538231 -0.0013515531
-0.000237675 0.00119002 0.00052294065 0.00042713684 0.00026594877 -0.0014685483 -0.002095049 -0.00015725709
-0.00049673533 -0.0019722872 0.00035046387 -1.7677872e-05 -0.0007936388 -0.00037934014 0.00319476 0.0028287205
0.002083549 0.00093063136 0.0014584543 4.4795856e-05 0.00033010845 0.00025998784 -0.00073803973 0.00040793914
0.0006175784 -8.176696e-06 0.0019965232 0.0011111108 -0.00037361335 -0.00071476906 0.0009222329 0.0001892008
00000000: 8b7f 2139 4273 4239 7390 a2ba a814 0e3a
00000010: ecaa 353a 2537 91b9 b5fe 4a3a a64f d8ba
00000020: 05bb 04ba 1bc8 e0b9 033d d038 3bee 263a
00000030: bd6f 4dba 58a3 203a 09d6 483b 867d 343b
00000040: 07fb aa39 8d64 1a3a b3b8 31ba 6f37 c539
00000050: 6466 7c39 8bd6 8e3a b355 7bb9 ae52 fdba
00000060: ef08 2eba 41c8 07bb 4337 5e39 2f56 22b9
00000070: 7abe 37ba 37fd 1a3b 0b15 823a 0099 df3a
00000080: 7a1e 3dbb ba56 faba 9196 3b3b 9c19 acba
00000090: 8cb9 98ba 6f9f a83b 089c b239 ada2 a83b
000000a0: 0aa0 fa3a fbac 2eba 8cbf 37b8 55b0 0b3b
000000b0: 5562 1e3a 75e0 07bb 93a3 89bb 30e8 42bb
000000c0: f7f0 a4ba 01ba 78bb 6cb2 773b b5ac 3fbb
000000d0: 44de 02bb 1479 983b c3b0 0c39 0d04 ba3b
000000e0: 79bc 003b 365a 4b3b 3141 183a d51f 99ba
000000f0: 4be7 a43a e929 5ebb 9c09 2ebb e192 70bb
00000100: fda6 6a39 fd29 313b 25d1 24bb a94e 303b
00000110: 8a50 0dbb 00a2 e2ba 8291 443a 2e79 42bb
00000120: 2d7c 34ba 5cfd c5b9 56c2 833a 68e4 9d3a
00000130: 1bea 3ab7 5491 683a 0581 3737 48e7 323b
00000140: 625a c3b9 4ef8 76ba 51ba 023b 8324 13bb
00000150: dcea 353a fcb5 113b 0672 62b7 3c92 5a3b
00000160: 165e 463a 90b9 2d3a ef38 0e3a ea7d 803a
00000170: a27d 173a 28fb 49bb 730e 49bb 50c4 46bb
00000180: 212c 2a3a c9f3 733a d5c6 a6ba 3eff f83a
00000190: 0bdb 0539 e662 36bb 1b01 d53a b024 5bbb
000001a0: cbe1 29bb 937e 03ba 1d6f b4ba 581a a739
000001b0: 6725 6eba 7ea2 413b 2528 233a b9c3 103b
000001c0: 00b7 a1ba 638d 41b9 7df9 ed3a 7133 93ba
000001d0: f719 22ba d6c8 0c3b af3c 9838 2524 003b
000001e0: f2f1 bd3a be71 c5ba 5f67 86ba a24b 083a
000001f0: 8a51 253a 4ac2 c4ba 675c fcba 38cd a5ba
00000200: a7c8 b0b9 cdf4 20bb 2d89 b73a ee9d 21bb
00000210: 78d3 1cb9 583e 843a 08e4 4d3a 67ed ce3a
00000220: 0f24 583a 517b 1b3a db27 85ba 3821 9638
00000230: f1fa 353a 299b 5dba ccc1 bbb9 4d56 36ba
00000240: 8c38 083a 4796 49b7 119b c23a ad47 773a
00000250: e30f 4d39 51e9 213a cebf 1f3a d33b 023a
00000260: 9f9a b1b8 f2aa 163b bd0e 05b9 5e84 8bba
00000270: 8919 a1b9 a140 3039 1b0b 21ba b4fe 32ba
00000280: 0f03 d7b9 6868 8936 2499 05bb 5296 a438
00000290: 80ea e1ba a979 ccb9 04a9 4ab8 1a40 65b9
000002a0: f19c 16b9 82a2 0cbb e188 c537 d734 7538
000002b0: 17ac 4b3a fd05 533a 81fa 46ba a36a 0b3a
000002c0: 4b6d 9b37 783e ce39 bae2 5cba 3629 ea39
000002d0: 8997 dc39 9baa a0b9 5727 e3b9 7966 703a
000002e0: d797 e2b8 0a62 9cb9 5c89 0dbb d6c9 8a38
000002f0: f93d 013b 9036 113a 390c af3a ea4d 073a
00000300: ca48 0539 4eb3 2d3a 7b00 9e39 b248 ac3a
00000310: 3f5f da39 5221 0dbb 413f 15b9 b30c 8cbb
00000320: 79c1 14ba 8d0a a7b9 04e1 83b9 7117 543a
00000330: d87f 7fba 14da 173b e22b 453b ab67 aa3a
00000340: eace bb3a f0b2 983a bfdd fb3a c1a5 65ba
00000350: da2d aeb9 c20a ecb9 bf9f e739 d336 4b3b
00000360: 0ada 223a a7da 083a a1b0 2839 49cf fa3a
00000370: 3c3d d637 0c02 dbba a7a9 cbba 9926 b1ba
00000380: 6638 79b9 72fa 9b3a f415 093a 56f1 df39
00000390: 0a6f 8b39 4e7c c0ba 174d 09bb 61e5 24b9
000003a0: 5837 02ba 7d41 01bb 77be b739 f14a 94b7
000003b0: 330c 50ba 2ce2 c6b9 2e5f 513b 0e62 393b
000003c0: 278c 083b 9df5 733a 9b29 bf3a 2fe3 3b38
000003d0: 6812 ad39 fa4e 8839 0279 41ba aae0 d539
000003e0: fce4 213a a42e 09b7 1ad8 023b b1a2 913a
000003f0: 89e1 c3b9 575f 3bba 01c2 713a 3464 4639
